40-10-2/Siyuan_AUG_12-5000.pt (torch, 37077 bytes, 24 tensors)

linears.0.weight f4 [30, 3]
00000000: 2b9f c73e 9161 033e 4f78 1cbd 698a ccbe
00000010: 8a10 f13d 83b0 473e 8823 533d 1924 0a3f
00000020: 7fa6 d2bd 815a 0b3e 5259 bc3d 0701 ecbd
00000030: f281 40be 7c07 6cbe 9d2c a83e 0c80 68be
00000040: 944e dd3d c698 edbe 56d9 cdbe 0d6b 213c
00000050: 3486 d03d 0ca3 68be ecf3 453e d28d bf3e
00000060: 72b1 c2bd 8539 fcbe 686e b03d eb71 e53e
00000070: 37d4 87bd 7ee5 02be 1868 d93e c332 9e3d
00000080: bf29 873e 42ac eabe 7ce3 983e f79c a73d
00000090: aef1 d33e cb43 bf3e 7acb 63be c239 443f
000000a0: 6ad4 ba3e 070c f93e e16b 363c d62e 553b
000000b0: b4a0 913e 6ee0 e33e dc1d eb3e e113 13be
000000c0: 9689 ad3e 030f bc3c 59cc bfbe 1351 413e
000000d0: 4e6b 5abe 1781 c3be f316 53be 2032 9bbe
000000e0: 4585 56be 26ba ea3e 8d52 9ebe d537 393e
000000f0: 48cb a3be c4a9 efbd bb6f 8fbe a61e 4bbe
00000100: 1a84 a03e 2510 9fbd 5d6a e3be 60cd 8b3e
00000110: bea0 46be eaad e4be 9e6e a53e a55f 74be
00000120: c303 1ebd 2758 3ebe e68b e8be 01a8 273f
00000130: 1349 a9be 4235 fbbd 3038 4f3e 7926 85be
00000140: 1fe0 c1be 4865 9a3d f12b dcbe cc79 7c3d
00000150: cc34 e8bd e18d f83e c7a9 3b3e bb58 b03e
00000160: 1b7e 473f 6f16 103d
0.38988623 0.12830187 -0.038200673 -0.3994935 0.11770733 0.19500928 0.051547557 0.5396133
-0.10285663 0.13608743 0.09196724 -0.115236335 -0.1879957 -0.2304973 0.32846537 -0.22705096
0.10806003 -0.4640562 -0.40204877 0.009852183 0.10181847 -0.22718447 0.1933133 0.37412888
-0.09506501 -0.49262634 0.08614808 0.44813475 -0.06632274 -0.12782857 0.4246223 0.07724526
0.26399037 -0.45834547 0.29861057 0.081842355 0.41395324 0.3735641 -0.22245589 0.7665063
0.36490184 0.4864199 0.011134119 0.0032529137 0.2844292 0.44507164 0.45921218 -0.14363052
0.33894032 0.022956377 -0.37460592 0.18878584 -0.21329996 -0.38184425 -0.20614223 -0.3031168
-0.20949276 0.45845145 -0.30922356 0.18087704 -0.3199103 -0.11702302 -0.2801493 -0.1983591
0.31350785 -0.07766751 -0.44417086 0.27305126 -0.19397256 -0.44663936 0.32310957 -0.2386461
-0.038577806 -0.18588315 -0.45419234 0.6549073 -0.33063564 -0.122660175 0.20236278 -0.26005915
-0.37866303 0.07538849 -0.43002275 0.061639592 -0.11338195 0.48545745 0.18326484 0.34442696
0.77926797 0.035177644

linears.0.bias f4 [30]
00000000: d410 3cbe b65a f9bd 2671 4dbd 00fc 3c3d
00000010: 7575 19bd a45b d8bd da2f 3d3d 1562 7d3c
00000020: 48a0 b43c d74a dc3c c931 5ebd b67c 7fbc
00000030: 099a 87bc 2863 74bc 2ffb 483d 9f23 0fbe
00000040: cc53 f6bb 0463 253e 1da6 32bd 5222 49be
00000050: caea c3bd f45a 213d 54de 1a3e d634 bfbd
00000060: f06a 9d3d a022 bc3d 2720 9abd 95e1 6a3d
00000070: 41d8 95bd 1083 143e
-0.18365794 -0.12175505 -0.050156735 0.046138763 -0.03746553 -0.10564354 0.046188213 0.015465279
0.022049084 0.026891155 -0.054246698 -0.015593698 -0.016552942 -0.014916219 0.049067672 -0.13978432
-0.0075173136 0.16151053 -0.04361545 -0.19641998 -0.09566267 0.03939338 0.15123874 -0.093362495
0.07686412 0.09186292 -0.07525664 0.057344038 -0.07316638 0.14503121

linears.1.weight f4 [30, 30]
00000000: c5a0 7fbe 0a5c 4bbe e40d 6abe e94f aebc
00000010: abca 023d 779a 91bc 0143 82bd 8ceb 4abe
00000020: 0f31 1f3e 91bb afbd b601 82be 5890 c93d
00000030: 7f9d b13d 773f d33d 96b6 833d 26ad be3d
00000040: f057 593d bc0e b63c e6e7 36be b4a7 bf3d
00000050: 1341 3ab9 6548 bd3e 1949 363d e8e9 ab3e
00000060: 8dec 10bd 4949 053c 0ac1 823d 0102 32be
00000070: 049d 053e c303 f53d 1f09 213d 5185 0cbe
00000080: 46dd 0ebd fc78 08be b872 b73e 5601 0e3d
00000090: 8082 543d 3938 293e 50bc 163e 9aa6 c0be
000000a0: 5caa a0bd 6a66 9c3e 341d db3d 34a3 aebe
000000b0: 4dbc 733d 0862 87bb a3b3 0c3d 4630 3b3d
000000c0: aebe 0cbe 1f41 c63d b26e bf3d ae3f 21be
000000d0: 1aa9 4f3e 44f8 88be f0a4 7cbe 2dc5 58be
000000e0: f814 26be b2a4 8f3e 7160 6b3e 4c43 153e
000000f0: 2056 173e 31bf ed3d 01e8 84be 94f5 9bbe
00000100: e82f 833e cbb0 d03d c151 5d3d f83b afbd
00000110: 5f60 44bd 5901 7abe 30ec 2c3e 6937 5cbe
00000120: 23ed 5cbe 56f6 8f3e 855f 7e3c bc92 233e
00000130: c8b6 ecbd 5d3e 6ebe b5e9 28be d7c8 85be
00000140: 43e7 213e d353 253e 6859 253d f937 9a3e
00000150: 9db4 4c3e bdeb f6bd 2e47 07bc 2c21 d8bd
00000160: 7f51 723e 3b52 a13e d9e7 7f3e 04df 1d3e
00000170: b8ef b83e 8c83 13be 4ba3 a73e 9897 883e
00000180: 5474 c0be 8611 7dbe 5368 2bbe 3c2d 8c3e
00000190: 7b2b 953e 70ee a4be 3bbe 203c 1909 95be
000001a0: 4512 7e3e 4d90 623d e0b8 4a3b bd1a 5fbe
000001b0: f72f 963e e93d d13e b025 2cbe dcbe 96be
000001c0: 246f 94be e383 273d 22dd 3bbe ff5b 9e3e
000001d0: 4931 8dbe f3f2 80bd 0869 00bd 50eb 25be
000001e0: 2fdf 3cbd d59a 74be aea6 31be c7f7 61be
000001f0: c737 59be 9a7e 963e 68a8 4dbd 7a01 2abe
00000200: dd00 783d 225a a8be 20fb b7bc 651f 26be
00000210: 0997 ce3d 27a6 573e fa2b d4bd 051b c63d
00000220: b508 363e 5948 273d b0e7 b4bd b4f0 bfbd
00000230: d58d 603e 7ea5 813b d0cb fcbd 59b7 fc3d
00000240: efbd f03d 0c19 d0bd 2c27 8e3e 9bea 79bd
00000250: bf69 a43e b62e 3d3e 4038 72be 255c 94be
00000260: 3f3f 9fbe b1da 5b3e d614 623e eb05 f9be
00000270: 2f7a 2bbd c13c 8d3e 8472 d83d 8b6c 213e
00000280: 7af7 713e 7e1e 27be 4f53 d1bd e67e 033f
00000290: c09a 913e 0311 0fbe df3b c3bd 5d47 47be
000002a0: 64a0 b9be 2d66 c53e c2da 45be 1f19 8bbe
000002b0: 092b 03bf 4aec 01be 3178 a3be 8ede ed3e
000002c0: 3e97 ce3d 5f54 753d 0065 a5be 960d af3e
000002d0: 9565 26be 5727 8d3e 05c8 a0be f37d 5e3d
000002e0: 65cc 23be 41e4 0bbe b65e a03d 73a8 afbe
000002f0: b50d 95bd 95c5 19be 5d6d 49bd 76fe 763e
00000300: 11b5 63be 0955 513e 5596 7a3e 9dbf a5bc
00000310: 47d7 583e b087 9c3e a466 2fbe 9431 263e
00000320: 6f67 89bb 57e5 6d3d 32b0 26bd e4cb aebc
00000330: d018 b23e 5312 9b3d e194 ad3d f8d8 ae3d
00000340: d40e 003d 115b 703e 33dc 973e 0628 cb3d
00000350: 7cef a23e 47a2 83be 2373 9d3d b521 a2be
00000360: 2237 643e 3a22 09be ff37 99be b533 72bd
00000370: 9486 bbbc 4dba 3b3e 69a0 473c 465f ae3e
00000380: e426 433c 53d2 073e b961 d93d 361e 5d3e
00000390: 0bb7 5fbb 001b 6fbe 8416 133e 0c93 1b3e
000003a0: e91b 283e e06b 4d3e 3505 77be f3d6 853d
000003b0: 6668 b8bd 4fcf 0abe 5d11 943e b215 b43e
000003c0: c084 84bd 33cc dbbd e5b1 093d 846c d33d
000003d0: cef2 d4bd a3b0 31be 8b7a 29be 1ca3 673d
000003e0: 56b9 8bbe 7fda 1abe ab54 2ebe deac 273e
000003f0: 5cac ecbd c41a ab3d 46ca 97be 3a1b df3d
-0.24963672 -0.19859329 -0.22856861 -0.021278339 0.03193156 -0.01777385 -0.06360436 -0.19816417
0.15546058 -0.08580697 -0.2539193 0.098419845 0.08672618 0.10314839 0.0643131 0.09310369
0.05306238 0.022223823 -0.178619 0.09358159 -0.00017762584 0.36969295 0.044503305 0.33576894
-0.035381842 0.008135148 0.063844755 -0.17383577 0.13048178 0.11963608 0.03931534 -0.13722731
-0.03487899 -0.13327402 0.3582971 0.034669243 0.051882267 0.16525353 0.14720273 -0.37627107
-0.078449935 0.30546886 0.106989294 -0.3410889 0.05950575 -0.0041315593 0.034351002 0.045700334
-0.13744614 0.096803896 0.09347285 -0.15746948 0.20279351 -0.26751912 -0.24672294 -0.21168967
-0.16218936 0.2805534 0.22986008 0.14576453 0.14778948 0.116087325 -0.25958255 -0.304608
0.25622487 0.101899706 0.054033045 -0.0855636 -0.04794347 -0.24414577 0.16886973 -0.21505512
-0.21574835 0.28117627 0.015525703 0.15973943 -0.115583 -0.23265977 -0.16495402 -0.2612979
0.15810876 0.16145258 0.040368468 0.3012083 0.19990773 -0.12056682 -0.008256717 -0.10553202
0.23663901 0.3150805 0.24990787 0.15417105 0.3612039 -0.1440565 0.3274177 0.26678157
-0.3758875 -0.24713716 -0.16739015 0.2737826 0.29134735 -0.32213163 0.0098109795 -0.29108503
0.24811657 0.055313397 0.0030932948 -0.21787544 0.2933347 0.40867546 -0.16811252 -0.2944249
-0.28991044 0.04089726 -0.18346074 0.30929562 -0.27576664 -0.06296339 -0.031350166 -0.16203046
-0.046111282 -0.23887189 -0.1734874 -0.22067176 -0.21212684 0.29393464 -0.050209433 -0.16602126
0.0605477 -0.32881266 -0.022458613 -0.16222914 0.100874014 0.21059476 -0.1035995 0.09673122
0.17776759 0.04084048 -0.088332534 -0.09372082 0.21929105 0.003956496 -0.12343562 0.12339658
0.11754977 -0.10161027 0.2776426 -0.061014753 0.32111928 0.1847485 -0.2365427 -0.2897655
-0.3110294 0.21470143 0.22078261 -0.48637328 -0.04186457 0.27585414 0.10568717 0.15764062
0.23629561 -0.16320226 -0.10220968 0.51365507 0.28438377 -0.13971333 -0.09532904 -0.19460817
-0.3625518 0.38554516 -0.1932173 -0.27167603 -0.5123754 -0.12687793 -0.31927636 0.46458858
0.10087441 0.059894916 -0.3230362 0.34190053 -0.16249688 0.27569076 -0.31402603 0.054319333
-0.15995939 -0.1366129 0.07830565 -0.34308204 -0.07278005 -0.15016778 -0.049176563 0.24120507
-0.2223704 0.20442595 0.2447141 -0.02023297 0.21175872 0.3057227 -0.17128998 0.1622985
-0.0041932384 0.058080044 -0.040695377 -0.021337457 0.34784555 0.075718544 0.08475662 0.08537477
0.03126414 0.23472239 0.29660186 0.09919743 0.31823337 -0.25709745 0.07687976 -0.3166634
0.22286656 -0.13391963 -0.29925534 -0.059131343 -0.02289132 0.18332787 0.012184241 0.34057063
0.011911128 0.13263826 0.10614342 0.21593556 -0.0034136202 -0.23350143 0.14364058 0.15192813
0.16416897 0.20060682 -0.2412308 0.06535139 -0.090042874 -0.13555644 0.28919497 0.35172802
-0.064706326 -0.10732307 0.03361692 0.10323432 -0.10397874 -0.17352538 -0.16550653 0.056552038
-0.27289838 -0.15122412 -0.17024486 0.16374537 -0.115563124 0.083547145 -0.2964651 0.10893865

linears.1.bias f4 [30]
00000000: bed2 91bd 4da0 b63c 5b5c 543c 1034 d6bd
00000010: 1767 c6bd 9b03 c6bc aea5 8b3d 5b44 f1bc
00000020: 8876 723d 3016 8e3d b9c7 5abd 5366 83bd
00000030: 27c8 acbd 9333 e7bd 57ee c5bd 8742 cf3d
00000040: 8420 43bd c1a7 813d 9d91 98bd 8d90 82bd
00000050: baee 0c3d c9a0 843d 916c 683d df00 a9bd
00000060: 538b f73c 776c babd 170a a03c 65da fa3d
00000070: 85fc a4bd cb96 003c
-0.07120274 0.022293234 0.012961472 -0.10459149 -0.096876316 -0.024171641 0.0681871 -0.02945154
0.05919507 0.06937826 -0.053413127 -0.06416001 -0.084366135 -0.11289134 -0.096646 0.10120111
-0.04763843 0.06330825 -0.074496485 -0.06375227 0.034407355 0.0647598 0.056744162 -0.08252119
0.030217802 -0.09102719 0.019536061 0.12248687 -0.08055977 0.007848452

linears.2.weight f4 [30, 30]
00000000: 319d 86be 5735 76be a0f4 f5bd c3dc 57be
00000010: bfc5 d33d 740b f7bd fe40 833e bbe9 0e3e
00000020: 5aad 8d3e db3e 753e 9100 5a3e 2240 cabc
00000030: 1dba 8a3e 7dfa b9bd 0348 b4bd c67d 33be
00000040: cf21 96be b864 983e a91d fb3d 77e8 aabe
00000050: 64fb a2bd 49ce 82be d52f 583e e466 293e
00000060: d5e5 003e 1332 bd3d b9c5 2a3e 0414 2a3e
00000070: dd43 1d3e 3259 1d3e c5ab 9a3e 3324 a33e
00000080: 5de6 813d a82f 94be 445f 53be d3c4 ee3d
00000090: 8f80 84bc 506d f83d 7487 7d3e 5c8d 803e
000000a0: fc3f 64be 7035 55be 1535 babd 6bd8 86be
000000b0: 9170 97be c96d 5dbe 2413 d8bd 73a5 69be
000000c0: 8f7a 4cbe 6372 683e 9cc4 1e3e 64cd 8c3e
000000d0: e79a 8cbd 78ce 2bbe cd65 edbc 4a47 e43d
000000e0: ab54 53be c720 46be c3a6 9d3e ea99 adbd
000000f0: 5983 8ebe 4c08 373e 432b 693e 7859 49be
00000100: f380 90be b6a4 75be db59 eabd 8368 71be
00000110: 3c3a 78be afb7 483e 87de bd3d 0e24 d43d
00000120: 2661 52be 492e dd3d 72f4 48bd fb9a a13b
00000130: 1b91 7b3e fa8c 27be 82bb 073e b7ce 11be
00000140: 0ba6 8f3d 6785 29be d3b9 87be e5e7 19be
00000150: 8528 273e bccc 153f c50c 5ebe 7a82 60be
00000160: 7d67 ad3e 87e4 863d c8d1 7d3e 5521 2dbe
00000170: a79a fe3d 7d35 193e 708b e8bd 895d 76be
00000180: e214 fabd 4881 d3bd a172 b4bd c9c7 a2be
00000190: da1c 4ebe 451e 0e3c 4f29 df3d 5e24 333d
000001a0: 1aab 8dbc 7168 cd3d ffec 683e 5092 65be
000001b0: a863 6cbe fdb2 c1bc 260e 4bbe b65a 5bbe
000001c0: 1c14 1d3e 2f00 153e 6c58 31be 29cc e13c
000001d0: 6e59 4abe 539e aabd bdbe 373e e034 8cbe
000001e0: 7834 8f3d dafa f4bd da73 c63d 7e9e 5b3e
000001f0: df55 3c3e 4b22 b63e e756 843e fd82 69bd
00000200: 51c1 98be b466 8fbd c70c 4b3e c43a fcbd
00000210: 3870 21be 5d07 1bbe b8d9 763e 2835 54be
00000220: da2e 7fbe 48e1 9a3e 064b 523e 3d14 b8bd
00000230: 4869 813e 3e27 97bd ca1a 0cbd 42bb 743e
00000240: 0a4e 97be 82f1 d3bd e5cf 5dbe f13a b6bd
00000250: 5e86 8c3e 3504 7d3e 57cf 41bd 0950 9f3d
00000260: 3d25 64be fb74 ae3e 7305 a43e 95f6 2f3d
00000270: 2adc a2be 978a 963e 0778 afbd 6398 cbbd
00000280: ff04 233d 6a19 143e dd0f 523e bbc8 373e
00000290: 6fa8 403e 9b20 d2be be1c 16bd 8c1f 7fbe
000002a0: 60b8 a43e 6e6e 743e b4b7 e9bc c42f 94be
000002b0: a323 9cbe c755 7d3e 20ea 903e 4f98 333e
000002c0: 4070 58be ac39 00be e679 ef3d 0d6c f23c
000002d0: d073 6fbe 6dcd a83d 43a5 c13d c72c 5f3e
000002e0: 6ae3 83be 0145 0ebd 187c 07be 49a8 4ebd
000002f0: 22d9 8f3e 44e8 dd3d 6b60 9abe 7862 2ebe
00000300: d6bb 763e 64f2 86bd 2940 e33d 35bb 0cbe
00000310: 5a44 813d 2e10 eb3c a8f9 98bc 94d1 9fbe
00000320: 8c70 463c 5782 15be 7bf9 90be f9a0 443e
00000330: 3be2 88bc 63e3 613e a035 503e 0a3e 84be
00000340: 78eb 6b3d 291d 81be 8951 cf3d a081 433e
00000350: ddbb 1cbe fa54 973e 9798 523d 188a c8be
00000360: 4af4 9b3e d9ad 7b3e 85d2 64be f182 06be
00000370: bff1 09be 7b47 4f3c d3d6 aabe 18d9 0fbd
00000380: ee20 bd3d 43a6 62be c86e c3be d7f3 a0be
00000390: 80b1 67be 8204 153e 09ec 4e3e 6477 273e
000003a0: 7c8c 0fbe c8f8 8cbe 18b8 f63d 4480 abbe
000003b0: 6e95 233e bf2f c53e 9de5 a73e df1a ba3e
000003c0: f4a9 8fbd 1d28 f63d d5da 82be 172c 21be
000003d0: 8880 4bbe a724 39bc 0da9 ccbd 093e 713e
000003e0: aacf 95be cd5b 46be 38ac 123e dce2 9fbe
000003f0: 92a7 06be 7ed6 3e3e 6ab8 24be b7dc 38be
-0.26291803 -0.24043785 -0.12009549 -0.21080308 0.103404514 -0.120627314 0.25635523 0.13956349
0.2767132 0.23949759 0.21289279 -0.024688784 0.27095118 -0.0908098 -0.08802798 -0.17528448
-0.2932267 0.29764342 0.122615166 -0.33380482 -0.07958105 -0.25548008 0.21111996 0.16543156
0.12587674 0.092380665 0.16676988 0.16609198 0.15357919 0.15366057 0.30209175 0.31863555
0.063427664 -0.2894261 -0.2064181 0.11658635 -0.016174583 0.12130225 0.24758703 0.2510785
-0.22290033 -0.20821166 -0.09092156 -0.2633699 -0.2957807 -0.21623911 -0.10550526 -0.2281702
-0.19968627 0.22699885 0.15504688 0.2750045 -0.06865483 -0.1677798 -0.028979206 0.1114641
-0.20637767 -0.19348441 0.30791292 -0.084766224 -0.27834585 0.17874259 0.2277041 -0.19663036
-0.2822338 -0.23988613 -0.1144292 -0.23575024 -0.24240965 0.1960132 0.09270959 0.103584394
-0.20544872 0.10799844 -0.049061246 0.004931805 0.24567072 -0.16362372 0.13255122 -0.14239012
0.07014092 -0.16554795 -0.2650896 -0.15029867 0.1632405 0.58515525 -0.21684559 -0.21924773
0.33868018 0.06586557 0.24787056 -0.16907246 0.12431841 0.1496181 -0.113547206 -0.24059118
-0.12211014 -0.10327393 -0.08810926 -0.3179305 -0.20128193 0.008674209 0.10896551 0.043735854
-0.017293502 0.10029686 0.22746657 -0.22419095 -0.23084891 -0.023644919 -0.19829616 -0.21421322
0.15339702 0.14550851 -0.17318887 0.027563171 -0.19760677 -0.08330979 0.17943855 -0.2738409
0.069924295 -0.11961909 0.09690066 0.21447179 0.18392132 0.35573038 0.2584755 -0.057009686
-0.2983499 -0.07002011 0.19829093 -0.12315896 -0.15765464 -0.15139528 0.2410649 -0.20723403
-0.24920216 0.3025 0.20536432 -0.08988235 0.25275636 -0.07380532 -0.034205236 0.23899558
-0.29551727 -0.10348798 -0.21661337 -0.08897961 0.27446264 0.24708636 -0.047316875 0.07778937
-0.2227983 0.34073624 0.32035407 0.04295977 -0.31808597 0.2940261 -0.08567815 -0.09941175
0.039799687 0.1446282 0.20513864 0.17947666 0.18814252 -0.410405 -0.036648504 -0.24914378
0.32171917 0.2387025 -0.02852998 -0.28942692 -0.3049594 0.24739753 0.28303623 0.1753857
-0.2113657 -0.12522 0.11693172 0.029592538 -0.23384023 0.08242307 0.09455349 0.21794425
-0.2575944 -0.034733776 -0.13230932 -0.050453458 0.28095347 0.10835317 -0.30151686 -0.1702975
0.24095091 -0.06589201 0.11096222 -0.13743289 0.06311865 0.028694239 -0.018673733 -0.31214583
0.012111794 -0.14600502 -0.28315338 0.19202031 -0.016709438 0.22059397 0.20332956 -0.25828582
0.057597607 -0.2521756 0.101229735 0.19092417 -0.15306039 0.2955702 0.051415052 -0.39167857
0.30459815 0.24578036 -0.22345932 -0.13135888 -0.13471125 0.01265132 -0.33367023 -0.035119146
0.092347965 -0.22133736 -0.38170457 -0.31436035 -0.22626305 0.14552501 0.20207228 0.16354138
-0.14018434 -0.27533555 0.12046832 -0.33496296 0.15974972 0.3851299 0.3279237 0.36348626
-0.07014838 0.1201937 -0.2555758 -0.15739475 -0.1987325 -0.0113002425 -0.099931814 0.23558821
-0.29259998 -0.19370957 0.14323509 -0.31227767 -0.1314986 0.1863651 -0.16085973 -0.18052946

linears.2.bias f4 [30]
00000000: 350d 16bd 1af9 583d 0a18 1bbd 0242 82bd
00000010: 193c 253d 648a aabd e4d6 423d a034 913d
00000020: a41b 55bd 05a7 c53d 50d5 883d 95a6 19bd
00000030: 9ae7 063d dc3d 673d b523 fb3c 5036 cc3c
00000040: d456 b9bd 0672 43bd 2efc f7bc 8040 653d
00000050: 5d91 8c3d 72f4 863d 03e2 0ebd 2931 9b3d
00000060: f162 2ebd bc9c 90bd fbf6 3cbd 4215 843d
00000070: 4df6 403d 7332 57bd
-0.03663369 0.052971937 -0.037864722 -0.06360246 0.040340517 -0.08327177 0.047568217 0.070901155
-0.052028313 0.09650997 0.06681311 -0.03751238 0.032935716 0.056455478 0.030656675 0.024928242
-0.09049764 -0.047716163 -0.030271616 0.055969715 0.06863663 0.06589593 -0.03488351 0.07577736
-0.042574827 -0.07061145 -0.046133976 0.06449367 0.04710989 -0.052538346

linears.3.weight f4 [3, 30]
00000000: f3b9 4e3e b712 a93e 5f80 023e 2bdc 87be
00000010: c8ab c13e 00f1 2cbe dfdb 85be 3ea7 363c
00000020: 38ae 3abe 42c5 73be e401 1fbd 66e0 913d
00000030: c3d8 47be c07d 7d3e 9a3a 923e 0ed6 f6be
00000040: ae20 01be 68e0 9e3e f882 283e 6215 733d
00000050: 7205 bcbe f004 45be 7855 cfbd 8daa 763e
00000060: cfc3 e53e 8bf1 8fbc 667c 95be 6583 583e
00000070: 13b2 21be 471e a33e b111 9bbe 5c93 6cbe
00000080: 5a9c ca3e 39d4 593e 8c37 ba3d d715 98be
00000090: a67f 553e 7358 33bf c6f5 c43d ca80 54be
000000a0: bd31 f03e 54c7 b4be 2e1f 20be d126 813e
000000b0: 3cff 89be 990b 123f c76f 203e 3f0c edbe
000000c0: 8d09 a8bd 3b24 c53d 7630 83bd 816c a7be
000000d0: e74a b5be f451 1b3f 796a e4bd 0674 273e
000000e0: cad1 d9be 14d9 8b3e 4086 c2bd 229c a83e
000000f0: 633d fbbd 42e8 1e3e a66c b5bd 0a1e 97be
00000100: c5fa 883e 05de d1be c28d 213e 0358 e7bc
00000110: be34 e5be b9e6 c33e a5cf fc3e b49b b7be
00000120: be21 16be 8d06 e63d 3af9 b33d 29b3 d93a
00000130: 6989 02bf b7d1 96be 75da 83bd f41c ac3e
00000140: 6c37 9c3e f0b9 003e a5f1 0abe 16ad 653e
00000150: 1b9e 94be 8b2a 73be 179e 76be c0ff b43e
00000160: 7773 4b3e 9d15 49be
0.20188121 0.3302209 0.12744282 -0.26535162 0.3782637 -0.16888809 -0.2614431 0.011148272
-0.18230522 -0.23805717 -0.038820162 0.07122879 -0.19516282 0.24755001 0.28560334 -0.48210186
-0.12610123 0.31030583 0.1645621 0.059346564 -0.36722904 -0.19240165 -0.10123724 0.24088497
0.44875953 -0.017571231 -0.2919647 0.21143873 -0.15790586 0.31859037 -0.30286935 -0.23103088
0.39572412 0.21272363 0.09092626 -0.29704162 0.20849475 -0.7005684 0.0961719 -0.20752254
0.46912947 -0.35308325 -0.15636894 0.25224927 -0.2695254 0.57048947 0.1566764 -0.46298406
-0.08204947 0.09626051 -0.064057276 -0.3269997 -0.35408708 0.60671926 -0.111531205 0.16352853
-0.4254287 0.27314055 -0.094982624 0.3293162 -0.12267568 0.15518287 -0.08858614 -0.29515105
0.26753822 -0.409897 0.15776733 -0.02824021 -0.44766802 0.38261965 0.4937717 -0.3586098
-0.14661309 0.11231718 0.087877706 0.001660918 -0.5099092 -0.29456875 -0.06438152 0.3361584
0.30511034 0.1257093 -0.13568743 0.22429308 -0.29026875 -0.23746698 -0.24083744 0.35351372
0.19868265 -0.19637151

linears.3.bias f4 [3]
00000000: 1599 f0bc fb53 3ebe 2658 813d
-0.02936987 -0.18586724 0.06315641

exp_avg f4 [30, 3]
00000000: c1fb 67be 0cc9 44bd 3641 06be a666 1d3c
00000010: d2c2 723d 214d 993d 94d8 39bf b42c 9abc
00000020: 11cb c63a 3805 ef3d 123e 46bc ecc9 17be
00000030: 93f6 c3be ca3a 48bb c60f 47be eb14 263d
00000040: 37f3 0c3d 8159 8b3c d579 a23e aeee b6bd
00000050: ffef ff3c 54c2 183d 60a7 80bd debd 69be
00000060: f277 2dbe 50e7 e4b9 e5f0 bbbd b9ca eabe
00000070: a8a1 d73c 0708 233e 6068 b6bd 3f60 633c
00000080: 4ba2 acbc 47b4 973e acc8 ee3b a227 3d3d
00000090: 3339 f0be a1e4 94b9 6f58 f43d e1b8 de3d
000000a0: 4556 21bd 9ee7 14bd 9bb3 9a3e 04ae 0f3d
000000b0: eb0f b9bd 4570 703e 638d d4bc 7e8c 673e
000000c0: dba4 b43e b6bc a03c a6db 62bd f87f 9e3e
000000d0: 7dc0 15bb bee4 b73d 8693 a1be a071 363d
000000e0: d82b 5a3e 1506 713c 6fdc abbb 6fc9 7bbd
000000f0: c229 22be 9483 7b3c c956 833c a5f0 e33e
00000100: e587 e83b b1f6 9d3d 9636 dbbd 162b 54bd
00000110: 07bd a03b f82e 27be 6edf 68bd b788 12bc
00000120: db66 b13e 2fd4 443a fd2c 97bc fecf 56bc
00000130: b41a 9f39 e0a6 e83d c0e4 ceba 92c4 39bd
00000140: 283f 313d 0a0f 05be b1e4 903c ba1d a8bd
00000150: 3707 42be d3f2 5d3c 5a4c 033e 84db 953e
00000160: 5d02 2bbd 4b03 c5be
-0.2265463 -0.048043296 -0.13110813 0.009606993 0.059267826 0.07485414 -0.72596097 -0.018820144
0.001516672 0.11670917 -0.01209976 -0.14823121 -0.3827406 -0.003055262 -0.19439611 0.040547293
0.034411635 0.017010452 0.31733575 -0.08932243 0.031242369 0.0372947 -0.06281924 -0.22826335
-0.16940287 -0.0004365989 -0.09176806 -0.4585779 0.0263222 0.15921031 -0.08906627 0.013877927
-0.021073481 0.29629728 0.0072871055 0.046180375 -0.4691864 -0.00028399102 0.1193093 0.108751066
-0.039388914 -0.0363537 0.30215153 0.035078064 -0.09036239 0.23480327 -0.025946325 0.22612187
0.35282025 0.019621234 -0.055385254 0.30957007 -0.0022850328 0.08979176 -0.31557864 0.044541955
0.21305788 0.014710923 -0.0052447836 -0.0614714 -0.15836242 0.015351195 0.016032593 0.44519535
0.007096278 0.07713068 -0.10703771 -0.051798902 0.0049053463 -0.16326511 -0.056853704 -0.008943728
0.34648785 0.00075084245 -0.01845407 -0.013111113 0.0003034674 0.11359954 -0.0015784726 -0.04535348
0.04327312 -0.12994018 0.017687174 -0.08208795 -0.18948065 0.013546663 0.12822095 0.2926904
-0.0417503 -0.38479075

exp_avg_sq f4 [30, 3]
00000000: e67b 1142 5134 2340 85ef 3a41 6f49 2740
00000010: 6760 6c3f 0495 6c3f 4b82 de43 7ef0 a73f
00000020: a196 ee42 71d8 0242 03e8 8a3f f92f 5e41
00000030: 0cab 6442 5c04 0540 6ea0 8541 82ee c340
00000040: 743b a140 5655 1e41 de0a 7942 83e9 1340
00000050: 2ee5 6741 35cf fe40 1daa 6a40 4fbe d240
00000060: d270 fd40 b7b4 8b3f c87a 0f41 ec83 0b43
00000070: 2533 7940 6c1f 4042 d7f2 e041 0277 a740
00000080: 3419 ed40 4766 8142 5ce3 9040 05f1 8441
00000090: 9d90 e742 5901 a840 d7f1 1a42 8996 2a41
000000a0: 1197 7740 7fdd 8f40 93c0 f942 34c8 7340
000000b0: 5910 1b42 938f c641 d290 303e f963 9341
000000c0: a1af a842 1136 643f 149c 9d41 2b20 da41
000000d0: 19f7 5a3f 93a8 1a41 9973 f142 eaa1 0940
000000e0: 18db 5742 558b cf40 cfef 6640 783a 8e40
000000f0: 13aa 9142 04f5 4040 7e9b e241 6aba f942
00000100: 07b6 6940 713b fb41 61ea c940 9640 093f
00000110: 5824 2340 b4e6 8442 bb18 893f 45b7 b541
00000120: a628 8a42 b680 b93e c240 db41 35b3 cd40
00000130: 3c1f ad40 a233 cc40 467e 1e41 e37b 9240
00000140: 08c3 ea40 f8ef bd40 febb f340 cd82 fe40
00000150: 3097 b041 ebc5 b73f 7ab3 8341 3be4 9a42
00000160: b48b 4340 6c6c 5d42
36.370995 2.5500681 11.683476 2.613857 0.923346 0.9241488 445.0179 1.3120267
119.2942 32.71137 1.0852054 13.886712 57.167038 2.078391 16.703335 6.1228647
5.0385075 9.895834 62.260612 2.3111274 14.493452 7.962794 3.666633 6.585731
7.920022 1.0914525 8.967476 139.51532 3.8937466 48.030685 28.118574 5.2332773
7.4093266 64.69976 4.527754 16.617685 115.78245 5.2501645 38.73617 10.661752
3.8685954 4.495788 124.87612 3.8090944 38.765965 24.820105 0.17242745 18.423815
84.343025 0.89145 19.70121 27.265707 0.8553329 9.666156 120.72578 2.1505075
53.96396 6.4857583 3.6083868 4.4446373 72.83218 3.0149546 28.325924 124.86409
3.651735 31.404024 6.3098607 0.53614175 2.5490932 66.45059 1.0710672 22.714487
69.07939 0.3623101 27.40662 6.428126 5.410063 6.381303 9.905828 4.577623
7.3363075 5.935543 7.6166983 7.953467 22.073822 1.4357275 16.462635 77.44576
3.0554018 55.35588

exp_avg f4 [30]
00000000: 805b 89bd 2cf4 1c3e 693a e73d 5888 3bbe
00000010: 1035 74bd 0a03 26be 3f14 a4bd 1041 6dbe
00000020: 9635 11be 490f b53e 063a 383e 6c5d acbd
00000030: 8aee 573e 461b 0f3d 9fda ffbc 0297 9d3e
00000040: 2cc7 98bd fc67 71be b513 d43e cb3f 56bd
00000050: e1c4 d8bd 0a67 8d3d c28b e1bd 769d 8d3c
00000060: e3bf a1be 73b8 263e ce1c 9dbc a4dc 84be
00000070: 6c96 a63e 9cda 4dbf
-0.06706905 0.15327519 0.11290438 -0.1831373 -0.059620917 -0.16212097 -0.08011674 -0.2316935
-0.14180598 0.35363224 0.17990884 -0.08416256 0.21087089 0.03493812 -0.031232176 0.30779272
-0.07459864 -0.23574823 0.41421285 -0.05230693 -0.10584427 0.06904419 -0.11012985 0.017286997
-0.3159171 0.162813 -0.019178774 -0.25949585 0.32536638 -0.80411696

exp_avg_sq f4 [30]
00000000: c6dd 1342 b463 2a40 7d09 a943 44da 2542
00000010: 3002 3a42 f8e2 ef41 6bcf 2842 685c c141
00000020: 0df6 7c41 f390 1a43 4166 9941 834f 4842
00000030: dd47 ff42 bb28 3641 71d9 da42 f33a 4c42
00000040: fea2 8042 eb5b ea41 dd3a 2f43 6fbe 9b41
00000050: 5050 9b42 66e6 b642 2673 d140 2111 6e42
00000060: b4fa ad42 eeb4 9e41 7c62 6a41 9096 d741
00000070: d859 6942 6770 3543
36.966576 2.6623354 338.07413 41.46315 46.502136 29.985825 42.202557 24.17012
15.810071 154.56621 19.174929 50.07765 127.64036 11.384944 109.42469 51.057568
64.318344 29.294882 175.22993 19.467985 77.65686 91.45 6.545306 59.516727
86.989655 19.838345 14.649044 26.948517 58.337738 181.43907

exp_avg f4 [30, 30]
00000000: e850 d2bd 4da6 d33d e15f 79bc 0b45 10bd
00000010: 9bcb 343d 97d7 ab3d 53e9 da3d b350 473d
00000020: 9b09 f83c eb65 f4bd bf77 f7bd c25b f63d
00000030: ae24 e1bd 555d 3bbe 8111 b2bc 54f7 e8bd
00000040: d682 b4bd 7a8b 11bd 7c6d 993d 3b7e f7bd
00000050: bf17 cc3d aa65 493d 6f80 f63d 385b 003e
00000060: 1262 ff3c e070 36be 3fc9 21bd 79d9 80bc
00000070: 89e2 553c 7e26 c9bd 215a 4b3d 58b3 16bd
00000080: ed09 0d3c 6810 5a3c 08fb e5bc 557b d03a
00000090: 7fd3 3bbd edd1 28bd 1466 2dbc 71ce 3a3d
000000a0: 1b54 093d 3718 42bd da6d 443d dd72 7f3d
000000b0: 04a9 4fbc 6da9 5d3d d75c 533d 27ea c63c
000000c0: 4173 23bc 7cee 5c3d bfb7 74bc 78c9 b0bc
000000d0: ed64 45bd 4f15 c6bc b4f2 0d3c 18d4 6c3d
000000e0: 248e 2e3d fe0b 7f3b a117 87bc bc6c dd3c
000000f0: 3839 b13d 7fdd 16be 8f64 873c a13d 513d
00000100: 953e 8cbd f5c8 66bd d48d edbd b563 8cbd
00000110: b8c5 fcbc 7dd8 123e e595 e33d c5cf 0fbe
00000120: ec22 f73d 3b97 363e 5b0a fc3b a3dc d53d
00000130: 445d d13d 610e bc3d ca73 7cbd 17f7 d23d
00000140: 4c42 c3bd 1025 4cbd 9a21 dabd d007 00be
00000150: 9907 613c 23fa 563e dd69 4b3d 05b6 bf3c
00000160: e276 38bd 770f df3d 0f7b 69bb c384 babc
00000170: 48e2 9f3c 2f01 8a3c 21c4 eebc e248 a3bc
00000180: cde4 d9bb 67b8 7f3a 916b dbbc 023d 6f3c
00000190: dbf8 923c 2c6b a13a e3d6 313d 6c2f c93d
000001a0: bb8c 9b3b 9a2f 063d b47a 9a3c ce9d 973c
000001b0: 01df 17bd 8c15 0fbd 7351 14bd f405 733c
000001c0: 0adb cc3c 7b51 b6bc 4488 5cb8 9048 693c
000001d0: f767 6ebc 53cf fbbb 2ae0 523c 46fc d93d
000001e0: 3c85 d7bc 1d4b 213c a15b 2c39 68c6 10bb
000001f0: 8a9f ff3b bf23 8c3c 840f af3c d5fe c33c
00000200: 82fb a53a e2e3 97bc fb15 7cbc 7258 d33c
00000210: a59e 98bc 2112 9fbc 9a38 763b ea8d c6bc
00000220: bf41 e0bc 4892 90bb 7906 163a a7bb 19bd
00000230: 2eeb d83b acf3 603c 9ee5 093d 45bd ca3c
00000240: 37e0 b939 c59f 03bd 4fa3 eebc bce3 8dbb
00000250: d7ef 0e3c e1f0 2bbb cecb e53c 7a90 babc
00000260: 6206 583b 4b33 0f3c f36f 33bd f8e5 ab3d
00000270: 1c5f cbbc 6233 86bd 33b1 7639 bc5b bd3c
00000280: b253 2abd ce47 86bc a7d6 213d f12b a0bd
00000290: 8cb4 4fbd fd72 293d 941a 8f3d 1184 403d
000002a0: 2328 3d3d b8fc a0bb 08b8 7c3d aa83 063b
000002b0: 3ec8 3e3c 083a 233d 1f43 8b3d f2f3 d23c
000002c0: f993 903d 0eae 46bb 86b9 e2bc 1125 23bd
000002d0: 0e60 473e c1fd 26be 6b82 3a3d ff41 5c3d
000002e0: 3765 83bd 503a 06be c202 3dbe 0597 59bd
000002f0: 9d9f 86bd 0626 4c3e 2aa9 663e 9113 45be
00000300: f566 503e 573d 993e 8c78 473d cf98 663e
00000310: 8573 013e a107 d43c aa6e 0cbe ac6b 653e
00000320: 7ce0 2dbe 07b3 b9bd 2aa6 61be 1695 4abe
00000330: e689 b0bd 80cb 8b3e 4dbe 1f3d 1c65 923c
00000340: 4dbd 2bba 03a0 413e 7847 4fbd a7e2 9e3d
00000350: 03bd 15bd 3f94 0bbd 469d 253d f62c 583d
00000360: f9b5 7f3d de7a 163c 0d04 3e3d 3576 9ebd
00000370: 726c aabd 9541 833d ef4c a4bd 47d7 0ebe
00000380: 74b5 a0bc 9423 94bd 334f 2cbd a043 e3bc
00000390: 7eed 913d 7257 24bd b9b3 a83d 04f2 533c
000003a0: 2a42 493d 6be8 a83d e09a b53c 3bed dfbd
000003b0: aaec 0f3c 97b1 db3b 2bd1 64bc 0ee7 08be
000003c0: c24a 9e3e 6b3c 94be f1d4 143d 8d2e bb3d
000003d0: f71f fcbd a2f1 20be 4a19 9ebe a48f 1ebe
000003e0: 9c19 8dbd 5a19 ac3e 9bbc a83e d450 afbe
000003f0: dce0 9e3e 6873 ee3e 5dad 043d 21ab ac3e
-0.10269338 0.10334454 -0.015220613 -0.035222095 0.044139486 0.0839073 0.10689034 0.048660945
0.030278018 -0.11933502 -0.12083387 0.1202922 -0.10993324 -0.18297322 -0.021736862 -0.11375299
-0.088140175 -0.035533406 0.074915856 -0.120846234 0.09965467 0.04916922 0.120362155 0.12534797
0.031174693 -0.17816496 -0.039498564 -0.015728699 0.0130544985 -0.09821795 0.0496465 -0.03679213
0.0086083235 0.013309576 -0.028073803 0.0015905896 -0.045855995 -0.041215826 -0.010583419 0.045607034
0.033527475 -0.047386374 0.047956325 0.0623654 -0.012674574 0.054116655 0.05160221 0.024281574
-0.009976209 0.053938374 -0.014936387 -0.021580443 -0.048191953 -0.024180083 0.008663822 0.057819456
0.042616025 0.003891706 -0.01649076 0.027029388 0.08653492 -0.14732932 0.016527442 0.051084165
-0.06847874 -0.05634399 -0.11599317 -0.06854955 -0.030855998 0.14340396 0.111125745 -0.14044102
0.12067208 0.17831127 0.007691664 0.10442474 0.10222867 0.0918243 -0.061633863 0.10301035
-0.095341295 -0.049840033 -0.1065094 -0.1250298 0.013734722 0.20993857 0.049661506 0.023402223
-0.04503525 0.108916216 -0.0035626327 -0.022768384 0.019517079 0.016846268 -0.029146256 -0.019932214
-0.0066495896 0.0009754956 -0.02678469 0.014601948 0.01794093 0.0012315265 0.043417823 0.09823498
0.004747001 0.03276024 0.018857338 0.018507864 -0.037077907 -0.034932658 -0.03621049 0.014832962
0.02500679 -0.02225565 -5.2578995e-05 0.014238492 -0.014551154 -0.007684627 0.012870828 0.106438205
-0.026308648 0.009844569 0.00016437333 -0.0022090916 0.007801001 0.017106889 0.021369703 0.023925224
0.0012663456 -0.01854128 -0.0153861 0.02579901 -0.018630335 -0.019417824 0.0037570358 -0.024237592
-0.0273751 -0.0044119693 0.00057230104 -0.037532475 0.0066198325 0.013729971 0.033666246 0.024748454
0.00035453003 -0.03213479 -0.029130606 -0.0043301266 0.008724174 -0.0026236104 0.028051283 -0.02277397
0.0032962789 0.008740257 -0.043807935 0.083934724 -0.024825625 -0.06552769 0.000235264 0.023115031
-0.041583724 -0.016391661 0.03951135 -0.07820881 -0.050709292 0.041369427 0.06987491 0.04700095
0.046180855 -0.004912939 0.061698943 0.0020525255 0.011644421 0.039850265 0.06799912 0.025751088
0.070594735 -0.0030316147 -0.027676355 -0.03983027 0.19470236 -0.16307737 0.045534533 0.053773876
-0.064157896 -0.13108182 -0.18458083 -0.05312254 -0.065734126 0.1993638 0.22525468 -0.19245745
0.20351775 0.2992961 0.048698947 0.2251923 0.12641723 0.025882544 -0.1371409 0.22404355
-0.16980165 -0.0906735 -0.22036043 -0.19783434 -0.08620052 0.27303696 0.038999844 0.017870478
-0.00065513403 0.18908696 -0.050605267 0.07758074 -0.03655721 -0.034076925 0.04043319 0.052777253
0.062429402 0.009184567 0.046390582 -0.0773739 -0.083214656 0.06408993 -0.080224864 -0.1394931
-0.019617774 -0.072333485 -0.042067718 -0.027742207 0.07125376 -0.040122457 0.082374044 0.012936119
0.049135365 0.08247455 0.022168577 -0.1093392 0.008784452 0.00670452 -0.013965885 -0.1336939
0.3091641 -0.28952345 0.03633589 0.09139738 -0.12310784 -0.15717176 -0.3087867 -0.15484482
-0.0688965 0.33613092 0.32956395 -0.34241354 0.3103093 0.46572423 0.032391895 0.3372431

exp_avg_sq f4 [30, 30]
00000000: 47f3 5241 47b0 4841 11b4 6340 2368 ae3f
00000010: 612d a840 7138 2741 f436 4541 72e9 cd40
00000020: c9c2 0640 0f24 6941 889e 5f41 ef11 8241
00000030: 5138 5e41 7c65 ff41 fff9 5a40 73a1 9541
00000040: 4c59 4141 8df3 8540 d69a 8140 bb87 8841
00000050: 4a7e 1941 0f25 6d40 1fbb 5141 98ed 8a41
00000060: 0b24 0c40 2477 e441 abd4 b140 c1ac 3a40
00000070: bb51 d43f 3744 0741 0889 c93f e138 cd3f
00000080: 0783 133f cf7c 663e 56b4 313f 09ff f63f
00000090: 3773 f23f d786 353f 3c78 bd3e e21d 0340
000000a0: ad96 3b40 be2a 2340 c35a 0240 ebdb bd40
000000b0: 611e 203f 99e8 1a40 4e48 ba3f 8353 013f
000000c0: dcea 9c3f 689e 5b40 6455 2140 05ba 103f
000000d0: 3541 0740 272d 6c40 02a3 1b3f 5514 7b40
000000e0: 9573 0e3f 204a 1b3f 8689 b03e 878d ea3f
000000f0: bf73 3041 95a9 2741 00ce 6b40 998a b83f
00000100: 7077 9f40 b399 1541 c587 3a41 45b6 9c40
00000110: 25a1 3440 655d 5541 c187 6c41 8da5 6641
00000120: 9188 5d41 4f03 1142 45f4 3340 24fe 8541
00000130: 1074 1f41 841b 5940 0ae6 a740 b285 7941
00000140: 8dcf 3441 4330 3640 825c 3a41 88e8 8b41
00000150: df49 0440 87b4 ca41 7b5e 7340 8a68 2d40
00000160: 80c4 bf3f 2931 3d41 4ce6 3b3f dcad 0e3f
00000170: a403 783e 06da c83d c8c8 803e 39f0 213f
00000180: 1544 303f b6f8 f83e a61f c33e 2ddc 2f3f
00000190: 5f98 933f c245 3d3f b85e 813f ea84 2140
000001a0: 298a be3e 9874 9b3f 1e30 213f 0a0d 963e
000001b0: 1389 713f 0ad8 963f 41b1 9b3f d4bc 4a3e
000001c0: 4e26 2f3f f0af 753f f72f 353f 7879 963f
000001d0: e07e 233f 1f83 223e fa76 063f c749 e13f
000001e0: 2105 c03f e7f4 e93f b9cc 3a3f f224 573e
000001f0: ca4a 5f3f f21f 823f 7256 b63f 08ee 783f
00000200: 5b3c ca3e 63a4 cf3f cc1f 8d3f 2020 ff3f
00000210: f8a6 f03f bbf8 e43f 77c8 e63e d7f3 1940
00000220: 9fe8 e83f adf5 343f 917a a23e 7926 f33f
00000230: 19d9 323f d306 163f 5f19 903f 243e d73f
00000240: 17a6 9e3e 7ec8 3640 4fe5 4f3f 71a0 2a3f
00000250: ef07 c83e 3bcf 943f f3e4 c63f 88de 963f
00000260: 4ed7 8f3e 509b 393e 8917 2e3f d4a9 a73f
00000270: 0e56 bc3f 3e9d 703f d79a 913e e6bb ba3f
00000280: 2111 df3f 9773 bf3f 2b53 eb3f da95 7040
00000290: 1e8b 1d3f 45d3 1540 ba1d c83f 7a08 f03e
000002a0: db66 733f 5ead f73f d211 dd3f e026 573e
000002b0: 2316 873f 1adf eb3f 8dce 273f 5c55 0f40
000002c0: 32a3 783f 2708 393e 5aa7 643e 0798 d13f
000002d0: e7b7 ef41 3594 e141 cbdd 1640 1c21 4040
000002e0: 9307 1d41 5a4c 6f41 6ca1 d941 060a 8541
000002f0: 15a7 1c40 4485 0142 11f4 cb41 0c16 0942
00000300: 8657 ee41 74ba 7142 1158 bf40 dea3 2142
00000310: 653e db41 7c93 2241 b58f 0441 309b fe41
00000320: 234b 8c41 6c9a db40 3084 cd41 f7dd e141
00000330: c95d a140 b29e 7742 919f 7b41 2b2a 9e3f
00000340: b4e8 5d40 c6a8 8d41 3cca 8740 b87b 9940
00000350: d0e8 203f a994 523f 7a53 d13f 3ab8 e940
00000360: 86a9 c740 b518 0740 9ba7 633f 6ff3 d440
00000370: 88df 3941 7df5 f840 a698 cc40 bda6 c941
00000380: f51e 1e40 cb9f d140 77d1 7940 9ec5 bf3f
00000390: c6b3 c340 22b0 2e41 d2c7 3441 cbe3 ae3f
000003a0: ec7c dc40 3480 5641 99a8 5940 0d84 4541
000003b0: 2107 0640 adf1 853f 20a0 9f3f 796f 0441
000003c0: 2b78 a442 8606 9142 6bb9 1a41 1f75 fc40
000003d0: fa3a de41 4aba 4542 7ddf 9342 ea41 2d42
000003e0: a16c f940 cdc3 aa42 498c 9c42 59e3 b442
000003f0: 1f9a a342 87a5 3043 f5d6 a141 f7b9 de42
13.184394 12.543036 3.5578654 1.362553 5.2555394 10.45128 12.325916 6.4347467
2.1056387 14.571303 13.976204 16.258757 13.888749 31.924553 3.4215086 18.703833
12.084301 4.1859803 4.050151 17.066275 9.593332 3.7053869 13.108184 17.366013
2.1897 28.558174 5.5572104 2.916794 1.6587442 8.454154 1.5744944 1.6032983
0.57621807 0.22508548 0.69415796 1.929658 1.8941411 0.70908874 0.37005794 2.048699
2.9310715 2.5494838 2.0367897 5.9330955 0.62546355 2.4204466 1.4553316 0.50518054
1.2259173 3.4315434 2.5208368 0.56533843 2.113355 3.6902559 0.60795605 3.923116
0.55645114 0.6065998 0.34479922 1.8324441 11.028258 10.478902 3.6844482 1.4417297
4.98333 9.350024 11.658147 4.8972497 2.8223355 13.335301 14.783143 14.415418
13.845841 36.25323 2.811784 16.749092 9.965836 3.3923044 5.246831 15.59514
11.300672 2.8466957 11.647585 17.48854 2.0670087 25.338148 3.8026416 2.7095056
1.4981842 11.824502 0.7339828 0.5573404 0.24220139 0.0980721 0.25153184 0.63257176
0.68853885 0.4862725 0.38110083 0.68695337 1.1530875 0.73934567 1.0107031 2.5237374
0.37214783 1.2144957 0.62964046 0.29306823 0.94349784 1.178468 1.2163469 0.19798595
0.68417823 0.95971584 0.70776314 1.1755819 0.6386547 0.15870331 0.52525294 1.760064
1.5001565 1.8277863 0.7296863 0.21010187 0.87223494 1.0165999 1.4245131 0.97238207
0.39499173 1.6222042 1.1025329 1.9931679 1.8800955 1.7888407 0.45074818 2.4055078
1.819599 0.7068737 0.31734136 1.8996116 0.69862515 0.5860416 1.1257743 1.6815839
0.30986091 2.855987 0.8120927 0.66651064 0.39068553 1.1625742 1.553862 1.1786661
0.28093952 0.18125653 0.6800466 1.3098702 1.4713762 0.9398993 0.28438446 1.4588592
1.7427102 1.495715 1.8384756 3.7591462 0.615404 2.3410199 1.5634072 0.46881467
0.9507882 1.9349782 1.7271063 0.21010923 1.055363 1.842746 0.65549546 2.239585
0.97124016 0.18069516 0.22329465 1.637452 29.964796 28.197367 2.3572872 3.0020208
9.814349 14.9561405 27.20382 16.629894 2.4476979 32.380142 25.494173 34.27153
29.792736 60.432083 5.9795003 40.410027 27.405466 10.161007 8.285085 31.825775
17.536688 6.8626003 25.689545 28.233381 5.0426984 61.904976 15.726457 1.2356619
3.467328 17.707409 4.243437 4.7963524 0.62855244 0.8225809 1.63536 7.3037386
6.239444 2.110883 0.8892762 6.654716 11.617073 7.779967 6.393634 25.206415
2.4706395 6.550756 3.9034097 1.4982183 6.115695 10.918001 11.298784 1.3663267
6.8902493 13.4063 3.4009154 12.344739 2.094185 1.0464379 1.2470741 8.277215
82.2347 72.51274 9.670268 7.889297 27.778797 49.431923 73.9365 43.31437
7.7945104 85.38242 78.273994 90.44404 81.80102 176.64659 20.22996 111.36321

exp_avg f4 [30]
00000000: befb efbc 66b2 96bd 2848 1a3e 1171 0e3e
00000010: 7c7a 853d 0a6d f0bd 2536 69bc 38a5 07be
00000020: 36e7 a6bd 62af 363d 610d 68be 690b 7bbe
00000030: 9399 10bd 92fc 6e3e 1d01 84bd 245e 65be
00000040: d7ab bb3c 71ad bcbe 01b3 53be 8cd8 b4bb
00000050: 6858 85bd c278 83be 94e1 273e 71e1 683e
00000060: 298f 263f 905a a4be da0c 7fbe 49bc b8bd
00000070: c24f 5ebe 9743 babe
-0.029294845 -0.073582456 0.15066588 0.13910319 0.06517503 -0.117395476 -0.0142341005 -0.1324662
-0.08149569 0.04460085 -0.22661354 -0.24516071 -0.03530271 0.23338535 -0.06445525 -0.22399193
0.022909088 -0.36851075 -0.20673753 -0.0055189785 -0.06511003 -0.25678068 0.16394645 0.22742249
0.65062195 -0.32100344 -0.24907246 -0.090202875 -0.21710113 -0.36379692

exp_avg_sq f4 [30]
00000000: 568e 8c42 0a6d 2741 df3f 6a42 6460 cb40
00000010: dec8 1b41 eba6 5b41 55eb 0043 6d1e 3742
00000020: db35 d143 e326 4f43 bb9f 1742 fd67 7942
00000030: e276 4142 bd3a 1942 5f37 0f42 b4ed e342
00000040: 39a0 dc40 1b3f 8c43 94ac b241 1b0f 0743
00000050: b5e4 2e42 a205 ad41 3899 e941 1394 2742
00000060: 0dc4 5243 2b2a b742 db53 8b42 30fa be41
00000070: 8d0e 0343 22c9 ad42
70.278 10.464121 58.562374 6.3555164 9.73654 13.728251 128.91927 45.779713
418.42075 207.1519 37.905987 62.35155 48.366096 38.30736 35.804073 113.964264
6.8945584 280.493 22.334267 135.059 43.723347 21.62775 29.199814 41.894604
210.76582 91.58236 69.66378 23.872162 131.05684 86.89284

exp_avg f4 [30, 30]
00000000: 875e 0f3d b6bf 213d 3b0f f63c a3d5 6bbd
00000010: 94b2 2c3d 4f30 42be fbcc 4bbd f08b 0cbc
00000020: 7132 05bd 8e90 d1bc 384b 353d 2390 bd3d
00000030: 66e9 6cbc 7e65 cd3d 10c6 ecbb 33d8 9bbd
00000040: 22b1 a43d 309a 93bd 3aee 5f3d 99dd 733d
00000050: 4dda 09bd d047 b9bc e634 acbd c30e 59be
00000060: a7a5 053c 8a4f 30be 87d1 c4bd 37ed e13c
00000070: 54bc 393e ff45 533d 5a4e cf3b 5f33 e0bd
00000080: ee59 c4bc e6ff 053e 036c ba3d 29c9 babc
00000090: b90d 08bc 9b60 593d 07f5 1b3b 59ea d5bc
000000a0: 76b4 a23c d86a 633c fc98 2d3d 2e05 00bd
000000b0: 0c37 673d d016 7bbd ac0e ceb9 b0c1 e53c
000000c0: 51b9 323c 7c78 24bc b6a9 633c 97d3 be3c
000000d0: d2e0 37bd 210b 7d3e 21a5 ecbc 1447 eb3d
000000e0: fbf0 da3d ff6d 13be 3df9 88bd a4b7 b0bd
000000f0: 9b38 963c 6a59 06b9 6db2 2f3c 035e 38bc
00000100: 4e7d b53c 46e2 3abd 2ee3 08bc e7f8 9d3c
00000110: d0bb d2bb 7be4 aebb 92cb 433c b3a5 183d
00000120: d2a7 35bc 4c7c f23c 60c9 deb9 e1c9 67bc
00000130: 84c5 9fbc 29df d0bc 9630 3a3c b3ca 843c
00000140: 7ab0 5abc 140d 60bb 6103 a7bc 7695 e4bc
00000150: 28f1 6c3c c578 12bd ce9e 1dbc d7f5 d1bb
00000160: 120b 343d 28c7 483c 1ec0 bd3c b6ec 6d3e
00000170: b909 d63d 5830 8dbe 962d 0dbe 2e27 a4bd
00000180: a970 12bc 28b6 b9bc 40ec 843b c643 a33c
00000190: ec7f edbb 5050 713d 3862 afbd 6b3d 1d3e
000001a0: 1c78 c4bd 8203 5c3d ccc6 75bd 8252 a7bd
000001b0: 0e7e d93c 32d0 893c 1b58 92bd bab8 91bd
000001c0: 6e37 653d b999 efbe 7f9b c53d 6cde 78be
000001d0: 0a06 95be 5edf 9e3e fed1 9e3e b523 483e
000001e0: aabe 05bc cff3 5abe b4e6 a1bd 46b5 843e
000001f0: 13ff 073e 9d92 b23d bf22 793b d330 d43c
00000200: ec3c b1bb 1f34 cbbc 22c6 593c 9cdd 1abd
00000210: 8e10 8d3d 2b3d e9bd 4c59 cc3d c188 5fbd
00000220: fc1c 323d 1147 4b3d 5881 8fbc 29ae f3bb
00000230: f9d4 783d dbed 4e3d 3e35 71bd 5214 e03e
00000240: 8f05 93bd d757 5d3e fc13 843e 157f 99be
00000250: 2211 89be 33ea 2dbe 1d36 0f3d 3520 083e
00000260: 9791 ab3d 106e 55be 5e10 d9bc bf9a 53be
00000270: 7881 34bc 5b5d bbbc a0b2 f1bb a236 0ebc
00000280: 600a b43c 1469 bd3d c123 76bd 4dab 0a3e
00000290: 4601 5fbd adc4 d63c 75de 91bc fa76 5ebd
000002a0: 57c7 323d 642e dc3c eed7 3bbd 0b1d 21bd
000002b0: f3cf cfbc 7511 83be 7be9 4e3d 3124 22be
000002c0: 7d78 69be fcbe 413e efd2 823e b94b ef3d
000002d0: 04a4 1abd 14f3 5dbc 8301 cbbc b9c3 d7ba
000002e0: ef76 6bbd 210c 793e 02b8 603d 8583 433c
000002f0: 139a 103d f0b2 1d3d 6fb4 46bd df5e d8bd
00000300: e9ab e6b9 d95d afbd 29dd 95bb 08bb bf3d
00000310: 6c3f 93bd 6277 643d b9a4 6cbd 5496 67bd
00000320: 9e61 ad3c 49fa 9b3c cba9 ca3d 14d6 853d
00000330: c7ff 453c 1d7f fc3d 65e6 653d 1ee0 563b
00000340: 43c6 40be 4ffc c1bc 0ff7 3439 57ea 603c
00000350: ba5d dc3c 292b 6dbc be14 c1bb da7a 4c3d
00000360: 2396 53bc 5793 14bc 0839 3f3c b4e4 79bc
00000370: 6e8b 193c 269f 43bc 85a8 283c 340a dd3c
00000380: bf74 233c 305b ecbc 57cc e73b ff00 783b
00000390: 9e05 a23c f584 96bc 63f1 52bb 4603 7ebc
000003a0: 7ab3 81bb ce57 8fbc 2e4e ca3b dad5 c43c
000003b0: 2f9a e0bc c732 ef3a 3f11 6d3c dcdb 433c
000003c0: 1e1b b83d 5b5c a23e f844 393e d5f7 c7be
000003d0: f327 bbbd bc60 00bf 274f 98bd bba4 33bc
000003e0: c7e2 ebbc f257 92bc 21d4 813d c8aa 663e
000003f0: 1a61 f1bd 9fda 9f3e 21bb 09be 1014 1cbd
0.035002258 0.03948947 0.03003656 -0.057576787 0.042162493 -0.18963741 -0.04975603 -0.008578286
-0.032518808 -0.025581624 0.044261187 0.092560075 -0.014459943 0.10029124 -0.0072257593 -0.07609596
0.08041598 -0.07207143 0.05467055 0.059537504 -0.033655453 -0.02261725 -0.08408527 -0.21197037
0.00815717 -0.17217842 -0.09610277 0.027578933 0.18138248 0.051580425 0.006326479 -0.10947298
-0.023968663 0.13085899 0.09102633 -0.022800999 -0.008304053 0.053070646 0.002379717 -0.026112722
0.019861441 0.013880454 0.042382225 -0.03125494 0.05644898 -0.061301053 -0.00039302313 0.028046459
0.010908441 -0.010038491 0.013895443 0.023294253 -0.04489214 0.24711277 -0.028887333 0.114881665
0.106904946 -0.14397429 -0.066881634 -0.08628777 0.018337538 -0.00012812545 0.010723692 -0.011252883
0.022154476 -0.045625947 -0.008354945 0.019283725 -0.0064310804 -0.0053372956 0.01195039 0.037267398
-0.011087375 0.029600285 -0.00042493176 -0.014147253 -0.019503362 -0.025497036 0.011364123 0.016209936
-0.013347739 -0.0034187483 -0.020387353 -0.0279033 0.014461793 -0.035759706 -0.0096203815 -0.00640748
0.04395587 0.012254514 0.023162898 0.2323483 0.10451073 -0.27575946 -0.13786921 -0.080152854
-0.008937993 -0.022669867 0.0040564835 0.019929778 -0.0072479155 0.058914483 -0.085636556 0.1535546
-0.095932215 0.053714283 -0.06000404 -0.08170034 0.026549365 0.016822908 -0.07145711 -0.07115312
0.055961065 -0.4679697 0.09648799 -0.24303597 -0.2910617 0.3102979 0.31019586 0.19544871
-0.008163134 -0.21382068 -0.07905331 0.2591955 0.13280897 0.087193705 0.0038015095 0.025902187
-0.005408874 -0.024805127 0.013291867 -0.037809 0.06887923 -0.1138862 0.099779695 -0.054573778
0.043484673 0.04962832 -0.01751773 -0.007436533 0.06074998 0.050519805 -0.058888666 0.43765503
-0.071787946 0.2161554 0.25796497 -0.29979768 -0.26770884 -0.16983871 0.034963716 0.13293536
0.083773784 -0.20842767 -0.026497062 -0.206645 -0.011017196 -0.022871664 -0.00737603 -0.008680018
0.021977603 0.09248558 -0.06009269 0.13541909 -0.054444574 0.02621683 -0.017806271 -0.054312684
0.043647137 0.02687759 -0.045860223 -0.03933434 -0.025367713 -0.25599256 0.050515633 -0.15834118
-0.22799869 0.18920511 0.25551555 0.11684365 -0.037754074 -0.013546724 -0.024780994 -0.0016461528
-0.05748647 0.24321033 0.054862984 0.011933212 0.035303187 0.038500726 -0.04851192 -0.1056497
-0.00043997102 -0.08562822 -0.0045734835 0.09361845 -0.07189831 0.055777915 -0.05777428 -0.05653985
0.021164712 0.019040244 0.09895667 0.06534973 0.012084908 0.123289324 0.056127924 0.0032787393
-0.18825631 -0.02367988 0.00017258174 0.013727746 0.026900161 -0.014475622 -0.0058923652 0.049921848
-0.012914213 -0.009068332 0.011671312 -0.015252281 0.0093716215 -0.011939799 0.010294084 0.026982404
0.009976565 -0.028852075 0.0070739198 0.003784239 0.01977807 -0.018373946 -0.0032187335 -0.01550371
-0.003958163 -0.017497923 0.0061738705 0.024027754 -0.02741727 0.0018249386 0.014469444 0.011954274
0.08989547 0.31711087 0.18092716 -0.39056268 -0.09138479 -0.50147605 -0.07436972 -0.010964568
-0.02879466 -0.017864201 0.063392885 0.22526085 -0.11786099 0.31221482 -0.1345029 -0.03810507

exp_avg_sq f4 [30, 30]
00000000: 88c8 9c3f 7ff6 1240 9eb0 0d3f 2cbc 2a40
00000010: d39c 1340 a787 c841 77cf 2e40 0404 d03f
00000020: cad6 813f 9ebf b43f b386 1c40 e5dd e840
00000030: 124e e93e 521c 9e40 1ad1 8f3f 0ae6 6040
00000040: 4c44 6b40 beca ee3f 1dcb 7a40 b50e 1340
00000050: 8f41 2540 7cd4 6d3f a0a0 cf40 8725 3641
00000060: 21d8 173e d852 2d41 9976 9440 21cc 1e40
00000070: b8c3 b341 99cf c93f c27d 6b3f adf8 ff40
00000080: 2690 8640 38ba 2c41 55fa 9240 66ca 1340
00000090: cdab 763f 9e21 7e3f 4e94 813f ea40 183f
000000a0: 6643 853e 3965 af3e 544a d13f a051 d540
000000b0: 8611 b13f c440 d73f 5b83 6a40 4ca1 0040
000000c0: fd36 473f 9b49 9d3f f279 b93f d372 3940
000000d0: 64b2 b240 0172 4042 d48b 0c40 eef4 c140
000000e0: 2c7f 8f41 4a24 a841 1714 e941 1ddb 0041
000000f0: c8dc cf3e a54a bc3e 20c9 c23e 85b5 1b3f
00000100: 4b85 213f 5f05 0741 a4bb 463f 8edf 933f
00000110: c38c 5b3f 6c48 e23e 9861 fa3e 7d9c f43f
00000120: 9a1d f93d 0959 833f 1110 f13e 6847 073f
00000130: f4c6 6740 3761 1f3f df51 8f3f 1cdc c53f
00000140: bd75 2b3f b031 8c3e fd1d 1d40 cb7f 6d40
00000150: 81c4 113f 7a20 5c40 ac97 693f 1e5f 093f
00000160: 294d cc40 f515 893e 6fcf c63f 53e9 ee41
00000170: d64b 4941 7709 1242 b6d9 4141 98d5 d141
00000180: 0161 2140 1e3c de3f 93d6 df3f c711 cb3f
00000190: 5f72 d53f 9148 9340 5297 9f40 8f6c cf41
000001a0: 5375 9d40 eaab 5240 5fa6 e640 4c95 df40
000001b0: 055b 5d40 a13b 3940 affa c640 6e2d 1441
000001c0: 4138 7841 8f30 2443 ea5c ba40 fd07 0142
000001d0: e712 7942 310d 8542 2c5c df42 9220 d741
000001e0: 06df d63f a5a1 d241 12c6 2341 fdc2 0042
000001f0: 4e34 5041 c2a3 4641 4309 f43f 3bd0 643f
00000200: 9266 983f 8a18 c93f daca 9d3f 03c1 3d40
00000210: dc3b 8840 174c a341 c997 7440 30a9 8440
00000220: 3574 7340 eb25 b340 752b 1740 99c7 c13f
00000230: 16f7 7d40 ecaa fc40 84b6 5d41 863b 0b43
00000240: 5888 9040 ffaa c041 a853 5742 b107 7342
00000250: f213 af42 2127 bc41 4125 ca3f 7b7c cc41
00000260: 90c5 1241 e5a2 d741 2b97 0041 4020 2c42
00000270: 1937 8240 53ce 0340 94fe b43f 9959 0d40
00000280: 7180 6440 50d5 2b41 1671 7640 63a3 dc41
00000290: 38e9 9c40 938f 9040 64fc 9a40 7438 0341
000002a0: 806d d840 ce6f 6a40 7983 d940 4cfb 0f41
000002b0: ba17 5941 d5f4 1043 80f8 3140 7ab2 2d42
000002c0: c267 6042 9e4b 5442 54b3 e842 8aa3 a841
000002d0: 92b6 ea3f b67a f43f 9ce9 aa3e bc03 5a40
000002e0: 302c 4a40 6141 fb41 96b0 6d40 ca6b b13f
000002f0: a46e 0740 3a8a f83f 64f6 4340 deaf 1341
00000300: c02d 3a3f bd2f 9140 b2bf d13f 35ec 6a40
00000310: 2e1f e840 a8f3 1b40 436d b240 bf7d 7940
00000320: 5d24 2440 cf21 a83f 9436 2e41 570b 2341
00000330: a48b 813e 02f7 2c41 b0ab 6540 62c3 0140
00000340: e887 d541 240a a53f 7c52 893e 92ea 483e
00000350: 1204 d13e 8e93 ad3e 9870 a83e 047f 313f
00000360: 618b 283e a07f 0840 1ae3 8b3e 0ade 133e
00000370: 0175 bb3e ad0a 823f b05c 033e d3a3 d53e
00000380: 8989 643d 732f 193f 0a3d 1c40 6814 d53d
00000390: 5dbf a73e 0d08 2e3f 616e 803f 11f3 0a3e
000003a0: a510 d03e 20f6 bf3e 5f2d 033f 580b b63f
000003b0: b5a5 043e e496 873e 67f6 6d3f b36f 293e
000003c0: 3cbc 1640 180f 5242 b066 9141 e5ab 7342
000003d0: 1ed4 9041 fa44 af42 dbe2 c640 6fc4 2040
000003e0: 3111 2a40 8573 6340 0ebe ae40 0497 8e41
000003f0: 8613 f940 c957 4642 b950 1c41 3638 f040
1.2248697 2.296295 0.5534762 2.667735 2.3064468 25.066236 2.7314126 1.6251225
1.0143673 1.4120977 2.4457214 7.2770867 0.45567375 4.940957 1.1235688 3.5140405
3.6760435 1.8655622 3.918647 2.2977726 2.5821264 0.9290235 6.4883575 11.384162
0.1482854 10.832726 4.6394773 2.481209 22.470566 1.5766479 0.91988766 7.999106
4.2050962 10.795464 4.593058 2.3092284 0.963559 0.99270046 1.0123384 0.5947405
0.26027983 0.34256914 1.6350808 6.666214 1.3833473 1.681664 3.6642673 2.0098448
0.7781828 1.2288088 1.449034 2.8976333 5.584276 48.111332 2.1960344 6.0611486
17.937096 21.01772 29.13481 8.053494 0.4059813 0.367757 0.3804407 0.6082385
0.63094014 8.438811 0.77630067 1.1552598 0.8576166 0.44195879 0.48902583 1.9110256
0.12163849 1.0261546 0.4708257 0.5284333 3.6215181 0.62257713 1.119686 1.5457797
0.6697653 0.2738166 2.4549553 3.7109249 0.56940466 3.4394822 0.9124706 0.5366076
6.384419 0.26774564 1.5532054 29.863928 12.581015 36.509243 12.115652 26.229294
2.5215456 1.7362096 1.7487358 1.58648 1.6675528 4.602608 4.9872217 25.928007
4.920572 3.2917428 7.207809 6.9869747 3.4586804 2.8942645 6.218101 9.261091
15.513734 164.18968 5.823842 32.2578 62.26846 66.525764 111.68002 26.890903
1.6786811 26.328928 10.235857 32.19042 13.01277 12.41498 1.9065326 0.89380234
1.1906302 1.5710614 1.232753 2.9649055 4.257307 20.412153 3.8217642 4.145653
3.8039677 5.5983787 2.3620274 1.5139037 3.968206 7.8958645 13.8570595 139.23251
4.5166435 24.083494 53.831696 60.75751 87.538956 23.519106 1.5792619 25.560781
9.173233 26.954538 8.036906 43.031494 4.069226 2.059468 1.4140191 2.2085936
3.5703394 10.739578 3.8506522 27.579779 4.903469 4.517526 4.8433094 8.2012825
6.7633667 3.663074 6.797299 8.998852 13.568293 144.95638 2.7807922 43.424294
56.101326 53.073845 116.35025 21.079853 1.8336966 1.9099948 0.33381355 3.406478
3.158947 31.406923 3.713903 1.386102 2.116128 1.9417183 3.0619135 9.230436
0.7272606 4.5370774 1.6386626 3.670667 7.253806 2.4367466 5.5758376 3.8983
2.5647194 1.3135318 10.888325 10.1902685 0.2530185 10.810305 3.588604 2.0275502
26.69136 1.289372 0.26820743 0.19620731 0.40823418 0.33901638 0.32898402 0.69334435
0.16459419 2.1327896 0.27321702 0.1444017 0.36612704 1.0159508 0.12828326 0.4172655
0.055795226 0.59838027 2.4412255 0.10404283 0.32763186 0.67981035 1.0033685 0.13569285
0.406377 0.37492466 0.51241106 1.4222212 0.12953837 0.26482308 0.92954105 0.16546516
2.355239 52.51474 18.17514 60.917866 18.103573 87.63472 6.2151923 2.5119894
2.6572993 3.5539258 5.4607 17.823738 7.783633 49.585728 9.769708 7.5068617
