40-10-1/Siyuan_AUG_12-50000.pt (torch, 37121 bytes, 24 tensors)

linears.0.weight f4 [30, 3]
0.06535162 0.7085795 -0.50465447 0.059495885 -1.115912 0.46519718 -0.05324047 0.04364926
-0.1874833 0.45713794 -0.0911862 0.18013138 0.7966416 1.3227712 0.1852112 0.5226392
-0.01824933 0.26385808 0.124896094 -0.5955331 -0.26195112 0.3008282 -0.2572438 0.17327636
0.7236744 -0.43535477 -0.12486234 -0.8153562 1.1310304 0.12679106 0.1509936 -0.81319976
0.3171104 0.2591212 0.44859594 0.7139594 -0.5289879 0.107341975 0.20968705 0.16884468
0.57958734 -0.06089414 -0.5128339 -0.27284208 -0.059073392 -0.14704397 -0.35508108 0.78892237
-0.53426075 -0.41600543 0.34946024 -0.083508074 0.47387946 -0.021465419 0.8503392 0.45201796
-0.161567 0.11416989 -0.61961186 -0.5738101 0.4567028 -2.2321246 0.18567578 0.26170003
0.59402645 -0.05312414 0.5598524 -0.11514145 -0.16844697 -0.72156984 -0.3727551 -0.49145687
0.029995952 -2.2364304 -0.1004482 0.9331858 0.24600694 0.12154884 -0.066491656 0.14325844
0.19344756 0.29508597 0.4164023 0.2421118 -0.22048648 -0.41919246 0.5414258 -0.86482185
-2.4835958 0.2844419
00000000: 12d7 853d 7765 353f 0931 01bf f5b1 733d
00000010: 34d6 8ebf 532e ee3e ae12 5abd 91c9 323d
00000020: 9ffb 3fbe fc0d ea3e d5bf babd 5c74 383e
00000030: b4f0 4b3f 9150 a93f 01a8 3d3e afcb 053f
00000040: 9e7f 95bc 6818 873e 86c9 ff3d db74 18bf
00000050: 751e 86be 2706 9a3e 76b5 83be 5c6f 313e
00000060: ba42 393f d2e6 debe d4b7 ffbd 2fbb 50bf
00000070: 9bc5 903f 84d5 013e 119e 1a3e dc2d 50bf
00000080: 4b5c a23e 89ab 843e 5eae e53e 0bc6 363f
00000090: c06b 07bf 1cd6 db3d 34b8 563e 9fe5 2c3e
000000a0: d65f 143f 226c 79bd 1549 03bf f5b1 8bbe
000000b0: f1f6 71bd b292 16be 30cd b5be d1f6 493f
000000c0: 50c5 08bf aafe d4be 74ec b23e 4806 abbd
000000d0: 54a0 f23e 3fd8 afbc d4af 593f e66e e73e
000000e0: d271 25be e7d1 e93d e29e 1ebf 38e5 12bf
000000f0: f3d4 e93e 21db 0ec0 cb21 3e3e 8cfd 853e
00000100: 1e12 183f b398 59bd 7d52 0f3f 48cf ebbd
00000110: 5d7d 2cbe cdb8 38bf c2d9 bebe 3ca0 fbbe
00000120: 12ba f53c ad21 0fc0 c9b7 cdbd 44e5 6e3f
00000130: 3ee9 7b3e 99ee f83d c72c 88bd 57b2 123e
00000140: 1e17 463e 8215 973e af32 d53e 28ec 773e
00000150: 35c7 61be 65a0 d6be e29a 0a3f f764 5dbf
00000160: 3cf3 1ec0 5ea2 913e

linears.0.bias f4 [30]
0.71778345 -0.04215758 0.21981974 -0.012308032 -0.077079624 -0.2032457 0.1573933 0.23337683
0.11388981 -0.10223321 -0.48248273 0.2487102 0.08867481 0.12343463 -0.00026140368 0.18718596
-0.6952375 0.052394908 -0.05706001 0.058600705 1.1261228 -0.13224302 -0.17911416 0.5339986
0.08736285 -0.19770764 -0.3337212 -0.39738134 -0.18335293 -0.8325758
00000000: a8c0 373f 6dad 2cbd 6d18 613e a1a7 49bc
00000010: ecdb 9dbd a41f 50be b62b 213e 56fa 6e3e
00000020: 103f e93d a55f d1bd fa07 f7be e3ad 7e3e
00000030: 249b b53d 4ccb fc3d 020d 89b9 adad 3f3e
00000040: 16fb 31bf 0b9c 563d c2b7 69bd 4b07 703d
00000050: cb24 903f b76a 07be b469 37be 22b4 083f
00000060: 4beb b23d df73 4abe 81dd aabe 9175 cbbe
00000070: dfc0 3bbe b023 55bf

linears.1.weight f4 [30, 30]
0.42101133 0.04824559 -0.32306328 0.03321368 0.60601306 0.37105975 -0.38668537 0.071291044
0.535986 -0.30978692 -0.24938914 -0.2863863 -0.01860998 0.51324844 -0.6468461 0.26295385
0.22959761 0.31116703 0.19345379 -0.20406489 0.46731085 0.024832753 0.25845924 -0.44530663
-0.5971423 0.41110256 0.17187051 0.017080095 -0.028185803 -0.440839 0.06322309 0.14554825
0.22422285 -0.2545858 0.3157364 -0.2688684 0.42779526 -0.04087579 -0.13059254 -0.27889332
-0.1683475 0.05884178 0.117268205 -0.118076175 0.2695123 0.17623423 -0.07331795 0.19914453
0.09764829 0.37624434 -0.06537674 -0.11116548 0.1765646 0.107551545 -0.2380811 -0.20184293
-0.09455525 -0.30922437 0.059227385 -0.24198388 -0.41343582 0.94338423 0.82387686 0.021489702
0.15938586 -0.022222454 0.28978017 0.030958321 -0.3912118 0.07683584 0.19468129 0.23752451
0.33600402 -0.25258717 0.22575432 -0.69127274 -0.08705004 -0.010326085 -0.20445389 -0.08883462
0.6643683 -0.5577606 0.08917704 -0.20180155 -0.16723797 -0.34695745 -0.42258406 -0.6359246
-0.16336954 0.09950029 0.44691584 0.08498021 0.27971935 -0.10546825 -0.24401177 0.12451259
1.001234 0.1370619 0.12779176 -0.36788875 -0.51530135 -0.15652177 -0.18812627 0.29034367
-0.21899988 -0.14080133 -0.48671138 0.22564809 0.10064832 0.25476587 -0.17765535 0.17260893
0.31221345 0.4842375 -0.115770556 -0.043795224 -0.612564 -0.29639903 -0.72780144 -0.16560169
-0.013705338 -0.42650688 0.28701806 -0.27119538 -0.13052347 -0.16066132 -0.4795842 -0.051738326
-0.14821805 0.108828045 -0.12974334 -0.06619357 -0.10209541 -0.080550954 0.14490363 -0.19577424
0.18533917 0.11190987 -0.38681304 -0.5305458 -0.045550205 0.204506 -0.13172935 0.4655305
-0.30286878 -0.16822463 0.16398053 0.2213166 0.28231028 -0.1925773 -0.13787006 0.08312891
0.13309573 0.4258324 1.075467 0.46484295 0.4034562 -0.08582882 0.68936193 -0.7765561
0.21214205 0.26493195 -0.2513955 0.9206412 -0.4265731 0.067852125 -0.49768874 0.06788974
-0.006931569 0.02724811 -0.23713186 0.4371639 -0.015238196 -0.12673454 -0.11304 -0.019430818
0.33381963 0.55502784 0.022190263 -0.71368116 -0.50737065 0.007978818 0.006265627 -0.44664174
-1.1611243 -0.14138247 -0.0885899 -0.26875246 -0.4108426 0.7147018 -0.18347962 0.10790546
-0.0011909783 -0.7910257 0.18927625 -0.2888143 0.360724 0.056334544 -0.52365375 -0.008680015
-0.3294116 -0.2973174 0.2730807 0.42048734 -0.47122157 -0.39847776 0.29582843 -0.37096775
0.36997783 0.20168024 -2.27421 0.43963882 -1.2047683 -0.53361523 1.7908368 -0.62907773
0.41475457 -0.41408408 -1.7330331 1.0508472 1.308844 -0.4878397 0.23032331 -0.56697303
0.03398464 -0.008178841 0.91433823 -1.4049575 -0.29142022 0.40266064 -0.1856041 0.1606071
-0.1928235 0.06424059 0.37914717 -0.8915718 0.76632994 0.6811428 0.40939438 -1.2055682
0.2769745 -0.049897738 0.03786866 0.34394738 -0.087374836 -0.08529404 -0.13585739 0.2164525
0.44727355 -0.109810576 0.29657203 0.17920837 0.08419598 -0.031037455 -0.16908921 -0.003366261
00000000: cc8e d73e 2b9d 453d 8d68 a5be 110b 083d
00000010: ac23 1b3f 8bfb bd3e a0fb c5be 0a01 923d
00000020: 6136 093f 649c 9ebe de5f 7fbe 3aa1 92be
00000030: f573 98bc 4064 033f b597 25bf e3a1 863e
00000040: a31b 6b3e 4951 9f3e c018 463e 63f6 50be
00000050: 5e43 ef3e 0f6e cb3c c554 843e 3bff e3be
00000060: 51de 18bf 097c d23e d3fe 2f3e 8eeb 8b3c
00000070: eae5 e6bc a6b5 e1be 1b7b 813d 9a0a 153e
00000080: ad9a 653e 1259 82be 34a8 a13e 1ea9 89be
00000090: fb07 db3e 5f6d 27bd 0dba 05be 1bcb 8ebe
000000a0: 4963 2cbe 1404 713d 502a f03d ecd1 f1bd
000000b0: 84fd 893e bf76 343e b927 96bd 8bec 4b3e
000000c0: d4fb c73d 19a3 c03e 3ee4 85bd baaa e3bd
000000d0: 5acd 343e fc43 dc3d 88cb 73be eaaf 4ebe
000000e0: 2fa6 c1bd a852 9ebe 6a98 723d 9fca 77be
000000f0: dcad d3be a181 713f 98e9 523f 2c0b b03c
00000100: 0c36 233e dd0b b6bc 115e 943e 4e9c fd3c
00000110: ea4c c8be 1c5c 9d3d 885a 473e a039 733e
00000120: b808 ac3e 1b53 81be 242c 673e 40f7 30bf
00000130: 4b47 b2bd bd2e 29bc 5c5c 51be edee b5bd
00000140: 0a14 2a3f 66c9 0ebf 74a2 b63d 11a5 4ebe
00000150: 6e40 2bbe 68a4 b1be f05c d8be f4cb 22bf
00000160: 584a 27be cfc6 cb3d 27d2 e43e 1b0a ae3d
00000170: 6037 8f3e bdff d7bd 39de 79be 7500 ff3d
00000180: 7028 803f f459 0c3e d8db 023e ea5b bcbe
00000190: caea 03bf 3e47 20be 2ca4 40be eda7 943e
000001a0: 8141 60be 392e 10be 3c32 f9be 4b10 673e
000001b0: b520 ce3d ac70 823e 49eb 35be 65c0 303e
000001c0: 71da 9f3e faed f73e 1d19 edbd 9f62 33bd
000001d0: ffd0 1cbf 9dc1 97be 3251 3abf 7d93 29be
000001e0: 5b8c 60bc 1c5f dabe 08f4 923e 1fda 8abe
000001f0: f2a7 05be 6784 24be 0f8c f5be 91eb 53bd
00000200: 79c6 17be 3de1 de3d 70db 04be 7f90 87bd
00000210: 6617 d1bd e6f7 a4bd 9e61 143e 0b79 48be
00000220: 8dc9 3d3e 0031 e53d 5c0c c6be d9d1 07bf
00000230: da92 3abd 056a 513e 0fe4 06be 045a ee3e
00000240: 9e11 9bbe 1443 2cbe 83ea 273e d2a0 623e
00000250: f98a 903e fc32 45be cf2d 0dbe 7d3f aa3d
00000260: 3f4a 083e b406 da3e e7a8 893f e5ff ed3e
00000270: d091 ce3e 05c7 afbd 067a 303f 61cc 46bf
00000280: c43b 593e 29a5 873e e9b6 80be 24af 6b3f
00000290: ca67 dabe 0ef6 8a3d 0fd1 febe c709 8b3d
000002a0: 3722 e3bb 6e37 df3c b2d2 72be f2d3 df3e
000002b0: a0a9 79bc b3c6 01be 8481 e7bd 612d 9fbc
000002c0: 68ea aa3e 4e16 0e3f 5bc8 b53c cfb3 36bf
000002d0: 0be3 01bf 97b9 023c e44f cd3b 3aae e4be
000002e0: b99f 94bf 91c6 10be 9f6e b5bd ec99 89be
000002f0: f659 d2be b2f6 363f 15e2 3bbe 8afd dc3d
00000300: 9a1a 9cba a980 4abf a2d1 413e 78df 93be
00000310: d1b0 b83e 0dbf 663d 2c0e 06bf 9f36 0ebc
00000320: a3a8 a8be fc39 98be 3cd1 8b3e 1e4a d73e
00000330: f443 f1be 4705 ccbe d376 973e 7cef bdbe
00000340: bc6d bd3e 4485 4e3e a88c 11c0 5718 e13e
00000350: d935 9abf 029b 08bf 243a e53f 3d0b 21bf
00000360: b65a d43e d402 d4be 07d4 ddbf 2982 863f
00000370: 3388 a73f 20c6 f9be e0d9 6b3e 2525 11bf
00000380: 7a33 0b3d 8c00 06bc 1212 6a3f a6d5 b3bf
00000390: 0835 95be 8929 ce3e 000f 3ebe 3076 243e
000003a0: 8673 45be 9290 833d 941f c23e 0d3e 64bf
000003b0: 332e 443f 605f 2e3f 249c d13e 0f50 9abf
000003c0: 9acf 8d3e 9261 4cbd 2b1c 1b3d df19 b03e
000003d0: 94f1 b2bd a4ae aebd 331e 0bbe b9a5 5d3e
000003e0: 0a01 e53e 5ee4 e0bd 4ad8 973e 6682 373e
000003f0: f16e ac3d 4342 febc b925 2dbe 7d9c 5cbb

linears.1.bias f4 [30]
-0.05575325 0.120632835 0.3412835 0.056829203 -0.044980932 -0.07006514 -0.23671062 -0.87462306
-0.022208365 -0.1271511 -0.08346508 0.0075032096 0.14890763 0.11152472 0.006477877 0.05168382
-0.13464358 -0.0042568874 0.04650522 -0.12625556 0.03359315 -0.20022914 -0.0035711185 0.2655177
-0.03379276 0.084840365 -0.32607263 -0.068451345 0.046781898 -0.16473822
00000000: 855d 64bd 590e f73d b6bc ae3e bdc5 683d
00000010: ed3d 38bd 507e 8fbd 4564 72be 4ce7 5fbf
00000020: 51ee b5bc e633 02be bdef aabd 7cdd f53b
00000030: 3e7b 183e 1367 e43d 5f44 d43b 6ab2 533d
00000040: 02e0 09be 5c7d 8bbb 427c 3e3d 2349 01be
00000050: f998 093d de08 4dbe 6d09 6abb f0f1 873e
00000060: 476a 0abd c9c0 ad3d fef2 a6be 3830 8cbd
00000070: 609e 3f3d 23b1 28be

linears.2.weight f4 [30, 30]
0.163074 0.006532797 0.026474854 0.0018021059 0.08869827 -0.38548246 0.1702928 0.07639512
0.009724435 0.07332943 -0.03379641 -0.11781972 0.062445406 -0.4021436 0.10342339 -0.05958551
0.12850446 -0.47833213 0.19032364 -0.3917717 0.09445177 -0.37883845 0.15089269 0.22215825
-0.24453865 0.21045157 -0.1849792 -0.2892701 -0.16269538 -0.10534903 -0.083695315 0.105035774
-0.22081402 0.38608617 0.32233742 -0.29676133 -0.3252117 0.22995631 0.11081489 -0.1355149
-0.4622189 -0.3617486 0.16495216 0.18372057 0.2827831 0.18191077 0.2579197 0.037531372
-0.29739633 0.28785896 0.089951426 0.116586745 -0.44439867 -0.35185122 -0.27783304 -0.049631525
0.11143994 0.12040198 0.07528473 -0.3463427 -0.06887542 0.011953525 -0.07482106 -0.13046156
0.07809882 0.16919085 -0.17531823 0.08590862 0.0026171398 0.27157888 0.3840297 -0.02449267
-0.35222784 0.3260959 0.50722426 -0.11725176 -0.13952759 0.06056004 -0.09893931 -0.19166559
-0.09380374 0.19254838 -0.15879974 0.0997967 0.20272748 -0.36279258 -0.09983397 0.31647655
-0.049981777 0.24505197 -0.025247319 -0.21395047 -0.044005297 -0.08068954 0.1928402 -0.8062462
0.09690736 0.52203155 -0.1982262 -0.25500175 -0.04234767 -0.49860224 -0.07731961 0.3895851
0.25155905 -0.7094783 -0.31275767 0.18055883 -0.116356954 -0.19810626 0.18147276 0.46541357
0.23380996 -0.06804003 0.10350871 0.034648478 -0.08691692 0.9240574 -0.029291043 0.19835965
-0.28944796 0.041805476 0.17358413 -0.30625364 0.2765017 0.24448848 0.06278442 0.18511602
0.19159856 -0.2337808 -0.09053778 -0.32488832 0.21338077 -0.26284158 0.11853441 0.05111172
0.39124793 0.29659122 -0.10561509 -0.009643904 -0.41335237 -0.19684689 -0.22275405 -0.23289971
-0.32092047 0.24178427 -0.2828337 -0.1970083 -0.29122186 0.16501103 -0.099206746 0.2724326
0.3594005 -0.0910227 0.13156724 -0.5260611 0.3897219 -0.12492321 -0.37573278 -0.3343746
-0.22578 0.13233945 0.32120615 -0.10343101 -0.0997252 -0.17455837 -0.352041 -0.1959909
0.30878845 -0.28030923 0.16559464 0.12265244 0.17983946 0.2454514 -0.23072562 -0.31029302
-0.0030413745 0.10490522 0.09999348 -0.06378947 0.2265735 -0.13305756 0.29016098 0.17624056
0.12839954 -0.093075 -0.030001735 -0.29481906 -0.15125503 -0.25287715 -0.31861812 0.009792018
-0.088425465 -0.22493756 -0.07649467 0.27448407 0.023337262 -0.15546626 0.00889082 0.080699705
0.30590895 -0.024244837 -0.24282011 0.4844803 -0.07916761 0.06420943 0.17656869 0.19463527
-0.44393098 0.2656235 -0.38668492 0.30269158 -0.03546161 -0.24293168 -0.033931326 -0.0032015422
-0.037912123 -0.24674961 -0.29996634 -0.05159487 -1.0153397 0.18931794 -0.059743572 -0.008127377
-0.14643872 -0.14272232 -0.19671379 0.07367358 0.31128806 -0.27363402 0.26763555 -0.24632213
0.43519652 0.39646932 -0.35304624 0.08136392 -0.36251438 -0.13029708 -0.032075938 -0.096356116
0.6409498 0.0187948 -0.55561817 0.16500404 0.18482153 0.24611889 -0.4059323 -0.035980985
-0.15121707 0.34314036 -0.30028692 0.2115871 -0.14314407 0.39242974 0.21017271 0.14839926
00000000: dffc 263e 1311 d63b cbe1 d83c a434 ec3a
00000010: 70a7 b53d f55d c5be 3c61 2e3e 0b75 9c3d
00000020: 3d53 1f3c bd2d 963d 1b6e 0abd 774b f1bd
00000030: c1c6 7f3d c4e5 cdbe a4cf d33d f00f 74bd
00000040: ac96 033e f3e7 f4be 33e4 423e 4d96 c8be
00000050: ee6f c13d 1df7 c1be 9d83 1a3e 747d 633e
00000060: 5768 7abe 9e80 573e 306b 3dbe 361b 94be
00000070: 9e99 26be 3bc1 d7bd 7368 abbd ff1c d73d
00000080: 121d 62be 16ad c53e 6909 a53e 1af1 97be
00000090: 2682 a6be ab79 6b3e ebf2 e23d 6bc4 0abe
000000a0: f5a7 ecbe 1d37 b9be 38e9 283e 3f21 3c3e
000000b0: f2c8 903e d146 3a3e 0d0e 843e 7fba 193d
000000c0: 5544 98be 4062 933e 7438 b83d 08c5 ee3d
000000d0: 3988 e3be d825 b4be 2240 8ebe 6d4a 4bbd
000000e0: a03a e43d 5095 f63d e12e 9a3d d553 b1be
000000f0: 8e0e 8dbd b8d8 433c c93b 99bd b797 05be
00000100: 46f2 9f3d 5e40 2d3e 9f86 33be dcf0 af3d
00000110: 5284 2b3b 630c 8b3e 8a9f c43e daa4 c8bc
00000120: 3557 b4be 0bf6 a63e 73d9 013f b121 f0bd
00000130: 52e0 0ebe ce0d 783d b1a0 cabd fc43 44be
00000140: 2d1c c0bd 672b 453e 669c 22be 3662 cc3d
00000150: cb97 4f3e f3bf b9be c175 ccbd 3709 a23e
00000160: b1b9 4cbd e7ee 7a3e 77d3 cebc d515 5bbe
00000170: e63e 34bd 8f40 a5bd e777 453e 2766 4ebf
00000180: 5e77 c63d dca3 053f cffb 4abe 978f 82be
00000190: c074 2dbd cb48 ffbe be59 9ebd b377 c73e
000001a0: 59cc 803e 5fa0 35bf c621 a0be 6ae4 383e
000001b0: 8e4c eebd 5edc 4abe ffd3 393e b04a ee3e
000001c0: e16b 6f3e 9258 8bbd 60fc d33d 90eb 0d3d
000001d0: 8001 b2bd 078f 6c3f c5f3 efbc cb1e 4b3e
000001e0: 8632 94be 383c 2b3d 0ac0 313e 47cd 9cbe
000001f0: a191 8d3e 305b 7a3e 1e95 803d 0e8f 3d3e
00000200: 6a32 443e 3c64 6fbe df6b b9bd c357 a6be
00000210: 7d80 5a3e 2c93 86be 2bc2 f23d 865a 513d
00000220: a651 c83e ceda 973e b94c d8bd 7701 1ebc
00000230: eca2 d3be 3b92 49be a319 64be 437d 6ebe
00000240: b04f a4be 4c96 773e 94cf 90be 8bbc 49be
00000250: 081b 95be a7f8 283e e82c cbbd 497c 8b3e
00000260: 5803 b83e 1c6a babd 90b9 063e f1ab 06bf
00000270: a189 c73e bdd7 ffbd 0c60 c0be 2633 abbe
00000280: df32 67be fe83 073e 2275 a43e a3d3 d3bd
00000290: ba3c ccbd 6ebf 32be b83e b4be d7b1 48be
000002a0: 8519 9e3e b184 8fbe a491 293e 3431 fb3d
000002b0: d627 383e 9d57 7b3e 5643 6cbe bade 9ebe
000002c0: cc51 47bb 8cd8 d63d 62c9 cc3d 0ea4 82bd
000002d0: e202 683e 3e40 08be fb8f 943e 6878 343e
000002e0: 2b7b 033e 1b9e bebd 33c6 f5bc 86f2 96be
000002f0: 99e2 1abe 1d79 81be ea21 a3be b36e 203c
00000300: 6918 b5bd 0856 66be 3da9 9cbd 2d89 8c3e
00000310: c92d bf3c 8c32 1fbe cdaa 113c e345 a53d
00000320: 19a0 9c3e 1c9d c6bc d6a5 78be cd0d f83e
00000330: a122 a2bd 3c80 833d 6cce 343e 784e 473e
00000340: ec4a e3be ceff 873e 91fb c5be 64fa 9a3e
00000350: 3140 11bd 15c3 78be 93fb 0abd f7d0 51bb
00000360: be49 1bbd eeab 7cbe 3095 99be 2455 53bd
00000370: a7f6 81bf 90dc 413e adb5 74bd b128 05bc
00000380: 08f4 15be cd25 12be 576f 49be 2de2 963d
00000390: 2661 9f3e c219 8cbe 8707 893e de3b 7cbe
000003a0: 14d2 de3e 07fe ca3e 7ac2 b4be 20a2 a63d
000003b0: 7c9b b9be 996c 05be 0f62 03bd 5b56 c5bd
000003c0: 4915 243f 8df7 993c fe3c 0ebf d2f6 283e
000003d0: db41 3d3e 9706 7c3e 5cd6 cfbe cc60 13bd
000003e0: a6d8 1abe 18b0 af3e 35bf 99be 4aaa 583e
000003f0: 5c94 12be 8dec c83e 8437 573e faf5 173e

linears.2.bias f4 [30]
0.20995148 0.19180927 -0.13103366 -0.070874594 0.11832565 0.09096286 -0.14442243 0.18240304
-0.040161874 0.07016497 -0.046017837 -0.03791935 0.029972235 -1.1772192 -0.033076417 -0.20939426
0.056650504 0.045801654 -0.20448174 0.016221415 0.043881185 0.07922827 -0.07704433 0.089338884
-0.012053069 0.13343881 0.06709325 0.13033527 0.0775748 0.105776526
00000000: 85fd 563e a669 443e b02d 06be b326 91bd
00000010: b854 f23d bc4a ba3d 79e3 13be ddc7 3a3e
00000020: c780 24bd a7b2 8f3d 337d 3cbd 5251 1bbd
00000030: 5588 f53c 1eaf 96bf 237b 07bd 736b 56be
00000040: 5c0a 683d 849a 3b3d a963 51be c6e2 843c
00000050: c2bc 333d 6e42 a23d 6bc9 9dbd 4ef7 b63d
00000060: 3c7a 45bc 2fa4 083e 3068 893d 9c76 053e
00000070: 89df 9e3d 5da1 d83d

linears.3.weight f4 [3, 30]
0.22657889 -0.06700497 0.16258183 -0.5147641 0.40861303 -0.59796345 0.026080914 -0.053995848
-0.5093412 -0.18162438 0.18184318 -0.5316022 -0.5449242 0.089287214 0.36535206 -0.47536877
-0.3059527 0.5519961 -0.38476014 0.38908163 -0.14772524 0.2229307 0.3651764 0.12538037
-0.23222241 0.2895198 -0.32811117 0.38915458 0.061246853 -0.12736233 0.09037179 -0.02504496
0.059950903 0.034780152 -0.3408805 -0.0041133617 0.5513122 0.4341871 0.07952862 -0.054033473
-0.037364017 0.03377407 0.07089796 0.28653628 0.31076676 0.25081146 0.04135375 -0.12666665
0.058182962 0.23062082 -0.022663532 0.6276937 0.021096142 -0.38455394 -0.33894575 -0.05835219
0.14330338 -0.093101345 -0.12252995 0.80745155 0.34137318 0.28828174 -0.28468093 -0.10830322
0.30164456 0.2897696 -0.36236918 0.18403356 0.03109381 0.28714016 -0.44902283 -0.38030455
-0.0065458566 0.26441544 -0.08735125 0.05346184 0.3951643 0.12863265 -0.29382345 -0.24510829
0.43479005 0.21779123 -0.2909043 0.2639136 -0.09369209 0.19745085 0.361408 0.3664271
0.42669955 0.27512437
00000000: 4c04 683e e739 89bd da7b 263e 94c7 03bf
00000010: ba35 d13e 2214 19bf a4a7 d53c c02a 5dbd
00000020: 2f64 02bf befb 39be 1935 3a3e 1517 08bf
00000030: 2780 0bbf 37dc b63d 6d0f bb3e 8963 f3be
00000040: d5a5 9cbe 9e4f 0d3f 48ff c4be b535 c73e
00000050: 4945 17be f247 643e 67f8 ba3e b663 003e
00000060: b6cb 6dbe f03b 943e 30fe a7be 453f c73e
00000070: fbdd 7a3d 456b 02be d814 b93d 172b cdbc
00000080: 148f 753d a275 0e3d e487 aebe 61c9 86bb
00000090: cc22 0d3f c64d de3e e7df a23d 3452 5dbd
000000a0: 030b 19bd ae56 0a3d f332 913d e2b4 923e
000000b0: d21c 9f3e 5c6a 803e 8d62 293d e7b4 01be
000000c0: 4251 6e3d dd27 6c3e dfa8 b9bc 89b0 203f
000000d0: d1d1 ac3c 41e4 c4be 4c8a adbe b502 6fbd
000000e0: 1fbe 123e ebab bebd fcf0 fabd 25b5 4e3f
000000f0: 77c8 ae3e aa99 933e b3c1 91be 14ce ddbd
00000100: 2871 9a3e ae5c 943e 7488 b9be 4b73 3c3e
00000110: 72b8 fe3c 0904 933e 52e6 e5be 47b7 c2be
00000120: a07e d6bb 7661 873e 36e5 b2bd cdfa 5a3d
00000130: fa52 ca3e 47b8 033e 0770 96be abfd 7abe
00000140: cd9c de3e aa04 5f3e 69f1 94be af1f 873e
00000150: a3e1 bfbd 8e30 4a3e 780a b93e 559c bb3e
00000160: 5d78 da3e 1add 8c3e

linears.3.bias f4 [3]
0.03180132 -0.45086807 0.1269688
00000000: 1a42 023d 2ed8 e6be 1c04 023e

exp_avg f4 [30, 3]
0.0009478964 -0.0008621904 0.0024250944 -0.005382468 0.0035091382 -0.0012789528 0.0023191548 -0.00082670205
0.004944246 0.0026433098 -0.000110218774 -0.0014031946 -0.005744697 -0.0003103965 0.0017854623 -0.000121187484
7.0881038e-06 0.0021777675 0.00087835453 0.0022009197 0.0048657577 -0.00035179107 -0.00071901444 -0.0006595367
-0.0008232551 -0.0003557259 -0.00059223984 0.0017408654 -0.0038276077 -0.0032502227 -0.0012702752 6.1375395e-05
-0.00063554244 -0.0017728854 0.00073256297 -0.00032284387 0.0019853315 0.00022774946 0.0012806724 -0.001151041
0.0014087254 0.0016478088 0.00061096955 7.038346e-05 5.278944e-05 0.003974252 -0.00027670106 -0.001107154
0.004160025 -0.0018373779 -0.0024304984 0.003898758 0.0007165041 -0.00015053118 0.0011051582 -0.0013302705
-0.001185842 0.0017697766 0.0032871196 0.0028504068 -4.514257e-05 -0.00017055607 0.00070155703 0.0023766435
-0.0011985675 1.01566e-05 -0.001483783 8.9310444e-05 -0.0007418986 0.0034070376 0.0009773417 0.0022985644
0.00017476831 0.0017064663 -9.099085e-05 -0.00028001115 -0.0014362955 0.00039415533 0.00068228104 0.0018152605
-0.001185178 -0.0044576847 0.0003226112 -0.001109873 0.0016294672 0.00048900984 0.0005792684 -0.0007384568
0.0004900243 0.00017214836
00000000: 407c 783a 9e04 62ba 55ee 1e3b 6a5f b0bb
00000010: 92f9 653b 89a2 a7ba f6fc 173b 09b7 58ba
00000020: 5703 a23b 613b 2d3b 4125 e7b8 66eb b7ba
00000030: 033e bcbb b7bc a2b9 2c06 ea3a 0926 feb8
00000040: 59d6 ed36 e0b8 0e3b 6041 663a 4e3d 103b
00000050: ef70 9f3b 9970 b8b9 3e7c 3cba c2e4 2cba
00000060: b7cf 57ba b980 bab9 8b40 1bba c02d e43a
00000070: 9ad8 7abb b001 55bb 5d7f a6ba aab6 8038
00000080: 889a 26ba 2a60 e8ba 7809 403a 5f43 a9b9
00000090: 561c 023b 08d0 6e39 3cdc a73a 87de 96ba
000000a0: fba4 b83a 4afb d73a 7929 203a d59a 9338
000000b0: 3b6a 5d38 713a 823b 3012 91b9 ec1d 91ba
000000c0: d250 883b 2cd4 f0ba ff48 1fbb 4e82 7f3b
000000d0: c7d3 3b3a e8d7 1db9 f5da 903a 795c aeba
000000e0: 416e 9bba d9f7 e73a b76c 573b e4cd 3a3b
000000f0: 7757 3db8 4cd7 32b9 b2e8 373a 76c1 1b3b
00000100: 4019 9dba 4466 2a37 7f7b c2ba 2e4c bb38
00000110: f97b 42ba 9b48 5f3b 251a 803a 83a3 163b
00000120: 0342 3739 82ab df3a 57d2 beb8 76ce 92b9
00000130: 1442 bcba a2a6 ce39 1bdb 323a 09ee ed3a
00000140: f957 9bba c511 92bb 2424 a939 2879 91ba
00000150: d993 d53a e530 003a 0bda 173a ff94 41ba
00000160: f974 003a b982 3439

exp_avg_sq f4 [30, 3]
0.14484124 0.018688753 0.064366125 0.27200654 0.03593605 0.09621354 1.1804222 0.002972975
0.19909985 0.08470207 0.017808283 0.017594388 0.08565753 0.015106364 0.0279508 0.21274716
0.0027800144 0.15099275 2.4392276 0.054814 0.4287777 0.0010675021 0.0038250412 0.015900673
0.2649173 0.019498546 0.046443842 0.14717238 0.009478961 0.035253227 0.050886214 0.00454385
0.12647566 0.10240649 0.0056602433 0.046893686 0.5138033 0.0032196904 0.093255624 0.2339114
0.04150604 0.06610263 0.002472971 3.59851e-05 8.716663e-05 0.036313407 0.012046226 0.029954402
0.46835384 0.02403558 0.3074331 0.09065984 0.033797566 0.1894297 0.038387354 0.011137294
0.050937176 0.31024626 0.050799336 0.10292749 0.0076846103 0.008463607 0.01777454 0.053087335
0.018786889 0.06398624 0.22652842 0.0066828053 0.14443333 0.16402033 0.0028253472 0.13727908
0.012224171 0.0033146315 0.033045713 0.0034439093 0.007785345 0.001093471 0.22870924 0.039834112
0.14593016 0.107336 0.011724141 0.34644806 0.08888446 0.015515783 0.23109424 0.0036126536
0.0011932703 0.0025462618
00000000: 4351 143e 2819 993c 63d2 833d 7144 8b3e
00000010: ae31 133d 9b0b c53d 1318 973f 3ed6 423b
00000020: d5e0 4b3e 4778 ad3d ade2 913c 1b22 903c
00000030: 376d af3d af80 773c 13f9 e43c 64da 593e
00000040: e730 363b d89d 1a3e 4e1c 1c40 a584 603d
00000050: c088 db3e 6deb 8b3a 8bad 7a3b 2142 823c
00000060: 3ea3 873e 6abb 9f3c e63b 3e3d 5bb4 163e
00000070: a54d 1b3c b065 103d 106e 503d 94e4 943b
00000080: d682 013e 7eba d13d 9079 b93b 9813 403d
00000090: 9d88 033f 7101 533b cefc be3d 7886 6f3e
000000a0: 3d02 2a3d d160 873d 9211 223b b5ee 1638
000000b0: 3acd b638 5ebd 143d 895d 453c ef62 f53c
000000c0: 13cc ef3e 44e6 c43c df67 9d3e deab b93d
000000d0: 516f 0a3d dcf9 413e 0f3c 1d3d 3279 363c
000000e0: 80a3 503d 99d8 9e3e f712 503d a6cb d23d
000000f0: 2fcf fb3b f1aa 0a3c ea9b 913c 1b72 593d
00000100: f6e6 993c 380b 833d 11f7 673e 6ffb da3b
00000110: 55e6 133e f2f4 273e 7629 393b e392 0c3e
00000120: e447 483c 4a3a 593b f15a 073d 36b3 613b
00000130: 351c ff3b cc52 8f3a c132 6a3e 1829 233d
00000140: b76e 153e fad2 db3d 9d16 403c a461 b13e
00000150: 0e09 b63d e935 7e3c f8a3 6c3e 45c2 6c3b
00000160: 8267 9c3a 2fdf 263b

exp_avg f4 [30]
0.0005785189 -0.00358364 0.011645393 -0.0036356603 0.0046381243 0.0063655176 0.01686165 -0.001599979
-0.0076820855 -0.004893058 0.002759846 -0.0061462303 0.0073440406 0.0058384603 -0.00036033333 -0.0033735656
-0.0035253102 -0.0024805716 -0.0022650121 0.0072499416 0.00093836646 0.0014337278 -0.00508311 0.002135859
-0.002413455 0.0022277588 -0.004269155 0.0021369292 -0.0016883811 0.0015589398
00000000: bfa7 173a 81db 6abb 52cc 3e3c 4244 6ebb
00000010: 68fb 973b d595 d03b 7121 8a3c 63b6 d1ba
00000020: 01ba fbbb f255 a0bb 88de 343b 5166 c9bb
00000030: 47a6 f03b 8e50 bf3b 1feb bcb9 0a17 5dbb
00000040: e408 67bb 1691 22bb 9970 14bb eb90 ed3b
00000050: b5fc 753a eceb bb3a 3890 a6bb c5f9 0b3b
00000060: 0e2b 1ebb 97ff 113b 45e4 8bbb b90b 0c3b
00000070: ab4c ddba 5755 cc3a

exp_avg_sq f4 [30]
0.37361735 0.8950032 1.7044758 0.12433645 0.13823667 0.67951816 3.903645 0.060024954
0.47242495 0.28160757 0.7006352 0.46253353 0.89739996 0.5276915 0.0026824346 0.27113456
1.728007 0.97557676 0.3890724 0.8279379 0.069268934 0.42643514 0.7976194 0.60063505
0.115789466 0.053566944 0.71342695 1.8136809 1.0526302 0.006681459
00000000: c64a bf3e ee1e 653f 432c da3f 1ca4 fe3d
00000010: ea8d 0d3e e7f4 2d3f 52d5 7940 badc 753d
00000020: afe1 f13e de2e 903e d45c 333f 32d1 ec3e
00000030: 01bc 653f ca16 073f c9cb 2f3b 26d2 8a3e
00000040: 552f dd3f 66bf 793f 7f34 c73e bdf3 533f
00000050: dfdc 8d3d b555 da3e c930 4c3f 38c3 193f
00000060: 0723 ed3d 0369 5b3d 26a3 363f b226 e83f
00000070: 96bc 863f 24f0 da3b

exp_avg f4 [30, 30]
-0.0020285633 0.0019302331 -0.0007870136 0.0002430464 -0.00033646752 0.0010344754 1.7705303e-05 -0.0007828688
0.0015352952 -0.0027542962 0.001592375 -0.0007684327 -0.0012264436 -0.0006172441 7.391558e-05 -0.0012082579
0.0028832005 -0.00042823452 0.001097626 0.00037169096 0.00061000674 0.0003655452 0.0015957557 -0.001948265
0.001522946 0.0019252877 0.00115453 0.0012314041 0.00026027716 -0.0032482634 0.0043628262 0.00070498727
0.0011273287 0.0017399945 0.003124006 0.0007874148 0.0009004821 0.0030280217 0.0034305453 -0.0038278357
-0.0026962752 0.005138686 -0.0005958006 0.0015730913 -0.0019345101 0.0035263025 -0.005338456 0.0003046345
0.0026605045 -0.0012686324 0.006706638 -0.00010285833 6.659954e-05 -0.0002540079 0.0007871965 0.0025296633
-0.0023661817 -0.0013133782 -0.00094760576 -0.0056529697 0.00028770664 -0.0009178826 -0.00018605754 -0.0001365533
0.00012423328 -4.5703524e-05 -0.0005952465 -0.00017161306 -0.000603181 0.0008933884 -0.0005748758 -0.00027355805
0.00036104163 0.0002141779 5.0164228e-05 0.0005907403 0.00022970972 0.00030098908 -0.00016087914 -0.000512315
-7.366551e-05 0.00029000267 -0.00033712067 -0.0003936242 -0.0017166336 -0.0003755479 0.00041027422 0.0005400175
0.00029122081 3.509169e-05 -0.0010156442 -0.00016777602 -0.00027162128 -0.00044303722 -5.636571e-06 -0.00022944092
-2.6051483e-05 -0.00070362474 -0.00063690904 0.001001905 0.00052663666 -0.0011376343 -0.00012166871 -0.0003946857
0.00037694784 -0.0009287485 0.0014231919 -0.000120849654 8.940353e-05 0.00044567193 -0.00095284014 9.745643e-05
0.00024576322 -2.0330732e-05 2.762539e-05 -0.00022006474 0.00051331695 0.00033950675 1.3834158e-05 0.00088392384
0.0014829839 0.0007326513 0.00075937534 0.00013645919 0.00079047837 -0.00069814624 0.0008410613 0.0013314129
0.0004513088 -0.0010727422 -0.0010270138 0.0014504325 0.0007720331 0.00015524939 3.9146875e-05 0.0010872658
-0.0020466007 -8.843668e-05 -0.0006167841 8.577781e-05 0.004083462 -0.0009956671 -0.001133651 0.0017351299
0.00023041012 -0.0005927332 -0.0013670984 -0.0017686749 0.00018469394 0.00011958797 0.00030796058 -0.0011347727
0.00019784921 -0.0008082721 -0.00011647449 -0.00084815593 -0.00076014776 -0.0008034416 -0.0015939402 0.0026592563
-0.00089058565 0.0002916708 0.00029177827 0.00031573995 0.000433372 -0.0008674801 0.0010262819 0.0005745007
7.3440344e-05 -0.00073391234 0.0015574027 0.00027491717 -0.00023279621 0.0015896644 -0.0035879428 -0.00065897824
0.00018449355 -0.0003206003 -0.000281659 -0.00029451726 -0.0008188221 -0.00015644036 -0.00035486557 0.00010580148
0.0006695001 0.00048630036 -0.00023682346 -0.00037472518 4.7979916e-05 -0.0015356815 0.0007091677 -0.00034214937
9.353804e-05 2.7553753e-05 -0.00014086107 -0.0003091399 0.0006037453 3.2736166e-06 -9.953839e-06 -0.00029497215
-0.00125448 0.00039474198 3.168222e-05 -0.0012506904 0.0013621242 0.00039828746 0.00054669904 0.0007680184
0.00018277437 -0.0016025836 0.00015367624 -4.7629624e-06 -1.1425906e-06 1.9948573e-05 -0.000119787444 1.8957631e-06
-9.285888e-05 -2.7842409e-05 0.00012150004 -7.587529e-05 -0.00019470991 0.00016707269 -8.2713545e-05 8.858585e-05
-3.106763e-05 5.545507e-05 -8.921183e-05 0.00010219544 -6.8299387e-06 1.7511868e-05 -0.00040917654 3.8406775e-05
8.1479855e-05 0.00011427619 0.00032618013 -3.158829e-05 3.740354e-05 3.650359e-05 1.8211447e-05 0.0004003252
-0.0016525402 -0.00096040725 -0.00065716216 -0.00050208386 -7.990013e-05 0.00016313442 -0.00060561876 -0.0014883343
-0.00074834586 0.00031121113 0.00094927056 -0.0013605837 -0.00038277422 -0.00026708978 0.00021001468 -0.0015541188
00000000: a5f1 04bb e0ff fc3a 974f 4eba 45da 7e39
00000010: e867 b0b9 3c97 873a d985 9437 7039 4dba
00000020: f53b c93a 6c81 34bb 3db7 d03a a570 49ba
00000030: 9ec0 a0ba 8dce 21ba 2003 9b38 685e 9eba
00000040: 14f4 3c3b aa84 e0b9 38de 8f3a 84df c239
00000050: dce8 1f3a a5a6 bf39 ad28 d13a ed5c ffba
00000060: 979d c73a ef59 fc3a 9953 973a 1167 a13a
00000070: cf75 8839 d1e0 54bb 0af6 8e3b e5ce 383a
00000080: e0c2 933a 8710 e43a 20bc 4c3b 836a 4e3a
00000090: 550e 6c3a c671 463b 00d3 603b 6ddc 7abb
000000a0: feb3 30bb 6c62 a83b 802f 1cba 2f30 ce3a
000000b0: 638f fdba 8a19 673b 37ee aebb 5ab7 9f39
000000c0: dc5b 2e3b 3d48 a6ba 5bc3 db3b a5b5 d7b8
000000d0: 5bab 8b38 5d2c 85b9 dd5b 4e3a b5c8 253b
000000e0: f111 1bbb a925 acba bf68 78ba 8c3c b9bb
000000f0: 55d7 9639 0f9e 70ba 7118 43b9 bf2f 0fb9
00000100: 9e44 0239 c9b1 3fb8 510a 1cba 08f3 33b9
00000110: cb1e 1eba 4832 6a3a 43b3 16ba 576c 8fb9
00000120: 304a bd39 f194 6039 6e67 5238 e9db 1a3a
00000130: 3cde 7039 12ce 9d39 aab1 28b9 e14c 06ba
00000140: df7c 9ab8 800b 9839 92bf b0b9 595f ceb9
00000150: aa00 e1ba 30e5 c4b9 131a d739 f68f 0d3a
00000160: ffae 9839 6a2f 1338 5d1f 85ba 08ed 2fb9
00000170: 6468 8eb9 7347 e8b9 c721 bdb6 1496 70b9
00000180: 2289 dab7 7573 38ba 3ef6 26ba 5a52 833a
00000190: fd0d 0a3a ac1c 95ba 6428 ffb8 d1ed ceb9
000001a0: 15a1 c539 4277 73ba 658a ba3a aa70 fdb8
000001b0: 287e bb38 13a9 e939 05c8 79ba 8661 cc38
000001c0: c8d9 8039 ea8b aab7 13bd e737 2ec1 66b9
000001d0: 1e90 063a d3ff b139 4219 6837 20b7 673a
000001e0: af60 c23a 650f 403a d110 473a 7c16 0f39
000001f0: 1b38 4f3a cd03 37ba ab7a 5c3a ce82 ae3a
00000200: a49d ec39 419b 8cba dd9c 86ba 701c be3a
00000210: 4462 4a3a 71ca 2239 a331 2438 9682 8e3a
00000220: 4320 06bb 1577 b9b8 aeaf 21ba 9ce3 b338
00000230: 90ce 853b 0b81 82ba 0497 94ba 4c6d e33a
00000240: 3f9a 7139 a761 1bba 3630 b3ba e2d2 e7ba
00000250: 67aa 4139 4dcb fa38 c575 a139 a7bc 94ba
00000260: be75 4f39 39e2 53ba c443 f4b8 c856 5eba
00000270: a744 47ba 0e9e 52ba c2eb d0ba eb46 2e3b
00000280: 3176 69ba 64eb 9839 d1f9 9839 e689 a539
00000290: 3536 e339 9b67 63ba 4e84 863a 179a 163a
000002a0: fc03 9a38 0664 40ba c321 cc3a c222 9039
000002b0: c21a 74b9 495c d03a b123 6bbb 48bf 2cba
000002c0: 9c74 4139 3e16 a8b9 a2ab 93b9 7069 9ab9
000002d0: 39a6 56ba 240a 24b9 400d bab9 bde1 dd38
000002e0: 6481 2f3a 21f6 fe39 d053 78b9 c376 c4b9
000002f0: 0b3e 4938 ec48 c9ba 70e7 393a 8362 b3b9
00000300: da29 c438 3c23 e737 1bb4 13b9 0e14 a2b9
00000310: a944 1e3a 4eb0 5b36 6aff 26b7 7ea6 9ab9
00000320: 5d6d a4ba 5ff5 ce39 86e2 0438 35ee a3ba
00000330: 4e89 b23a 3dd1 d039 5a50 0f3a d854 493a
00000340: 1fa7 3f39 c80d d2ba 2724 2139 89d1 9fb6
00000350: 1d5b 99b5 3c57 a737 6536 fbb8 ed71 fe35
00000360: 3bbd c2b8 1e8f e9b7 d6cd fe38 3c1f 9fb8
00000370: 0b2b 4cb9 3c30 2f39 7f76 adb8 2bc7 b938
00000380: 9d4e 02b8 6e98 6838 3d17 bbb8 c251 d638
00000390: ba2c e5b6 73e6 9237 bf86 d6b9 f616 2138
000003a0: 2ae0 aa38 90a7 ef38 2803 ab39 ab7d 04b8
000003b0: bfe1 1c38 6e1b 1938 c9c4 9837 bde2 d139
000003c0: 0c9a d8ba d7c3 7bba 6845 2cba 479e 03ba
000003d0: 0e90 a7b8 100f 2b39 63c2 1eba 3614 c3ba
000003e0: a42c 44ba 0d2a a339 78d8 783a 9d55 b2ba
000003f0: 16af c8b9 2f08 8cb9 6337 5c39 93b3 cbba

exp_avg_sq f4 [30, 30]
0.30968332 0.010081844 0.03191104 0.014195045 0.0028934611 0.074970566 0.010418749 0.042846076
0.06465888 0.12806295 0.24327755 0.2980201 0.1450092 0.019085689 0.013392827 0.27292806
0.20710866 0.0223082 0.1279807 0.10874143 0.29793313 0.029717417 0.21123569 0.24594237
0.08265115 0.16848277 0.053310607 0.121459894 0.0060428632 0.37516215 0.53031844 0.04288073
0.03011706 0.16963935 0.3003993 0.060977004 0.012364065 0.38211218 0.29125288 0.27039576
0.1795278 0.79566276 0.009477052 0.0826599 0.16244498 0.38294417 0.99777544 0.0010883176
0.15898415 0.05632989 1.4774581 0.0004306562 0.000312886 0.005103001 0.0034794493 0.19144282
0.16411224 0.04330996 0.00928577 1.2110423 0.003061049 0.0012934842 0.0003896993 0.00062107743
0.00061932806 0.0007846264 0.0022166045 0.0009611062 0.003629802 0.0077922833 0.0022443621 0.0018273566
0.0020296453 0.00039440094 0.00023476106 0.00088783837 0.0031223712 0.00071064103 0.0011944113 0.0031174426
0.0035144335 0.00026646466 0.002254338 0.0022207813 0.009286562 0.0018444718 0.0011776725 0.0013763546
0.0003594226 0.00510956 0.008686621 0.0044611786 0.0005122585 0.00690821 0.009721222 0.004809555
8.397815e-05 0.011712264 0.008075802 0.008369397 0.0029549212 0.02686578 0.00060404144 0.0014569067
0.005339345 0.017001517 0.020588277 8.7179586e-05 0.0042265584 0.0036701171 0.038399577 0.0002320732
0.0007353012 0.004052808 4.611718e-05 0.008038529 0.0030272405 0.0013667846 0.00045593668 0.024892848
0.018280692 0.0062879664 0.0030812165 0.013622781 0.055806123 0.02169364 0.0021452517 0.010800537
0.02485876 0.022153884 0.008005766 0.015731506 0.020329176 0.0045168977 0.021000557 0.021787368
0.026746893 1.8763723e-05 0.0525573 0.00016121836 0.07515362 0.014895083 0.025057707 0.0497574
0.01479666 0.057995446 0.008259441 0.023464039 0.0052752844 0.04418716 0.20925997 0.01656983
0.02115954 0.007007002 0.0003032116 0.03081161 0.0053570564 0.057568654 0.02549015 0.051737733
0.1376896 0.23031457 0.06778591 0.011934576 0.004368839 0.20720223 0.1929647 0.009752378
0.053563833 0.056774367 0.32926807 0.022153476 0.10636105 0.13314544 0.038783085 0.06982068
0.04877148 0.083037324 0.0033332792 0.25791875 0.015041448 0.00031689598 0.0017557031 0.0016630731
0.0025494047 0.006610705 0.00064354873 0.002018409 0.007225028 0.010972731 0.013371948 0.017088372
0.013047151 0.00038554042 0.002464522 0.02123507 0.0069678677 0.0010978299 0.015098745 0.007591163
0.02195167 0.0034382306 0.01765066 0.018961132 0.001933541 0.017260762 0.0026860666 0.008966983
0.0016638979 0.011472439 0.0002810967 1.9630745e-05 1.4319108e-05 8.1821e-07 1.8319879e-05 2.659123e-05
5.9684433e-05 0.00010561104 9.959723e-05 0.00025372003 0.00026334613 0.00080855814 0.00024096089 3.4401175e-05
2.0179893e-06 0.00068378076 0.00022841642 3.1778927e-05 0.00018175582 0.00038637142 0.00066083984 2.626416e-05
0.00032457637 0.00012893873 0.00020215756 0.00015961875 3.1500138e-05 6.397769e-05 7.4438285e-05 0.0007166354
0.040712617 0.00276942 0.006390195 0.017318575 0.029481247 0.03535173 0.0018565321 0.006859592
0.03831727 0.05025793 0.035980325 0.01947185 0.038444176 0.0005112753 0.019084435 0.03126331
00000000: d08e 9e3e 522e 253c 27b5 023d 5692 683c
00000010: 39a0 3d3b 2b8a 993d 67b3 2a3c 5e7f 2f3d
00000020: e06b 843d ef22 033e c01d 793e 1796 983e
00000030: 4b7d 143e 9759 9c3c 966d 5b3c 3abd 8b3e
00000040: 4b14 543e b0bf b63c 5f0d 033e d4b3 de3d
00000050: b18a 983e f171 f33c 2b4e 583e 51d8 7b3e
00000060: 0245 a93d bf86 2c3e 395c 5a3d f7bf f83d
00000070: 3603 c63b 4115 c03e f3c2 073f b4a3 2f3d
00000080: 0db8 f63c f0b5 2d3e f0cd 993e 06c3 793d
00000090: a692 4a3c 35a4 c33e 191f 953e 5071 8a3e
000000a0: 23d6 373e 8eb0 4b3f a345 1b3c 9849 a93d
000000b0: fa57 263e 4211 c43e 366e 7f3f e1a5 8e3a
000000c0: becc 223e 2cba 663d 591d bd3f b2c9 e139
000000d0: d90a a439 1337 a73b 7907 643b 9609 443e
000000e0: 0a0d 283e c965 313d 5823 183c 6f03 9b3f
000000f0: e19b 483b 218a a93a 8e50 cc39 cdcf 223a
00000100: 675a 223a 63af 4d3a 7444 113b bff2 7b3a
00000110: f9e1 6d3b 6956 ff3b 2616 133b ea83 ef3a
00000120: cc03 053b 99c7 ce39 312a 7639 d3bd 683a
00000130: b2a0 4c3b 504a 3a3a cb8d 9c3a 024e 4c3b
00000140: 6952 663b 48b4 8b39 84bd 133b 878a 113b
00000150: aa26 183c 34c2 f13a 225c 9a3a cc66 b43a
00000160: e270 bc39 196e a73b 5452 0e3c 142f 923b
00000170: 1649 063a 445e e23b c345 1f3c 7999 9d3b
00000180: 6d1d b038 cce4 3f3c 5e50 043c cc1f 093c
00000190: 5aa7 413b a015 dc3c 8958 1e3a adf5 be3a
000001a0: acf5 ae3b c446 8b3c bfa8 a83c 2fd4 b638
000001b0: f17e 8a3b 5986 703b e048 1d3d ad58 7339
000001c0: 3ac1 403a 6bcd 843b f26d 4138 09b4 033c
000001d0: ab64 463b ae25 b33a c90a ef39 16ec cb3c
000001e0: 64c1 953c 490b ce3b 3cee 493b 1632 5f3c
000001f0: f694 643d dcb6 b13c 5a97 0c3b bcf4 303c
00000200: 99a4 cb3c 107c b53c 9e2a 033c 5cdf 803c
00000210: 5f89 a63c 7c02 943b 5c09 ac3c 6c7b b23c
00000220: 4d1c db3c ca66 9d37 5346 573d b90c 2939
00000230: 24ea 993d 820a 743c d245 cd3c 6ace 4b3d
00000240: b16d 723c a28c 6d3d 9b52 073c a837 c03c
00000250: 4bdc ac3b 98fd 343d 3f48 563e 74bd 873c
00000260: c656 ad3c fe9a e53b 5ff8 9e39 a168 fc3c
00000270: 3f8a af3b 1ccd 6b3d b8d0 d03c f2ea 533d
00000280: 81fe 0c3e 95d7 6b3e 57d3 8a3d 3d89 433c
00000290: 7a28 8f3b d22c 543e 8a98 453e 70c8 1f3c
000002a0: c065 5b3d 3d8c 683d d395 a83e 357b b53c
000002b0: d2d3 d93d 4757 083e 03db 1e3d 25fe 8e3d
000002c0: 9ac4 473d 790f aa3d 2573 5a3b ed0d 843e
000002d0: 6870 763c 0f25 a639 9f1f e63a 79fb d93a
000002e0: ea13 273b 9d9e d83b d3b3 283a 4947 043b
000002f0: edbf ec3b f8c6 333c 0416 5b3c eafc 8b3c
00000300: b8c3 553c 5c22 ca39 d183 213b 2bf5 ad3c
00000310: b652 e43b 0fe5 8f3a ba60 773c 4abf f83b
00000320: fdd3 b33c f053 613b 1e98 903c 6054 9b3c
00000330: df6e fd3a 7166 8d3c b808 303b 41ea 123c
00000340: 2617 da3a e6f6 3b3c 2960 9339 b4ac a437
00000350: 1a3c 7037 f7a2 5b35 a4ad 9937 3b10 df37
00000360: ac55 7a38 7f7b dd38 dbde d038 ba05 8539
00000370: b811 8a39 6bf5 533a 72aa 7c39 fb49 1038
00000380: cb6c 0736 c03f 333a 1183 6f39 5d4a 0538
00000390: b595 3e39 e591 ca39 363c 2d3a db51 dc37
000003a0: e72b aa39 ba33 0739 42fa 5339 555f 2739
000003b0: 041f 0438 c32b 8638 c01b 9c38 96dc 3b3a
000003c0: 46c2 263d 287f 353b d764 d13b afdf 8d3c
000003d0: a882 f13c facc 103d e156 f33a 6ec6 e03b
000003e0: 92f2 1c3d 42db 4d3d 1b60 133d 6e83 9f3c
000003f0: a477 1d3d 1b07 063a f656 9c3c f50d 003d

exp_avg f4 [30]
-0.004352402 0.008455911 -0.00047984484 -0.002023263 0.0046668514 -0.0006805698 -0.0015269227 -1.4495342e-05
-0.004840487 -0.0015093853 -0.014294087 0.0058631757 0.010162954 -0.0016420984 0.0014172244 -1.9912924e-05
-0.00067952904 0.0028682256 0.0068955123 -0.008104774 -0.00019324126 -0.0019872014 0.0067191566 -0.0078000617
0.002865829 -0.0011815192 0.0021000588 -0.012896804 0.011832749 -0.0037358245
00000000: 989e 8ebb a98a 0a3c af93 fbb9 b898 04bb
00000010: 63ec 983b 4468 32ba 0623 c8ba 0531 73b7
00000020: f39c 9ebb 91d6 c5ba bf31 6abc e21f c03b
00000030: 8582 263c ae3b d7ba 29c2 b93a ae0a a7b7
00000040: 6c22 32ba d7f8 3b3b c0f3 e13b e3c9 04bc
00000050: cea0 4ab9 b53b 02bb 5f2c dc3b a997 ffbb
00000060: a2d0 3b3b 35dd 9aba 24a1 093b 1e4d 53bc
00000070: 25de 413c bcd4 74bb

exp_avg_sq f4 [30]
1.2879494 2.3406708 0.009853204 0.056188926 0.10714819 0.97710764 0.0772579 0.0016871631
0.17212471 0.18553565 2.288061 0.85026103 2.105041 0.043579485 0.018955695 0.0013172163
0.0035697708 0.041649297 1.9938577 3.17359 0.4562822 0.11618525 0.6528118 0.5658352
0.88304687 0.40379062 0.059601847 6.234444 4.508275 0.27009654
00000000: 87db a43f 8dcd 1540 556f 213c 5c26 663d
00000010: 8370 db3d ba23 7a3f 6439 9e3d cd23 dd3a
00000020: 7641 303e 0ffd 3d3e 976f 1240 b5aa 593f
00000030: feb8 0640 6780 323d f948 9b3c 72a6 ac3a
00000040: d1f2 693b 7498 2a3d bb36 ff3f 191c 4b40
00000050: d29d e93e 88f2 ed3d ad1e 273f 93da 103f
00000060: 5c0f 623f a5bd ce3e 1121 743d 9180 c740
00000070: ca43 9040 184a 8a3e

exp_avg f4 [30, 30]
0.0020425785 0.0013284008 0.0015452679 0.004540922 -0.0016486432 0.0018316356 -0.0011525997 -0.0030535853
0.0010119657 -0.0018655034 0.00022924125 0.00047860903 0.001347211 0.0015002644 -0.00048227634 0.0009204865
-0.0031406742 -0.00018002235 0.0010490128 -0.00038537348 0.0009868643 -0.0020916979 -0.0018019404 0.0020494768
0.0020395233 0.0012807607 -0.00195086 -0.00019485079 0.0011171404 -0.001996758 0.0024266983 0.003534903
0.00257799 0.004372882 -0.0022332128 0.00037578083 -0.0055231247 -0.004946461 0.003671905 -0.0018869684
-0.0009559638 -0.0021601974 0.0029229105 0.0022806835 -0.0024493753 -0.0026902303 -0.006972905 -0.0032161165
0.0033196602 -0.0012575086 0.0036655085 -0.004334898 -0.003388025 0.003924222 0.0012706108 0.0033456741
0.0049404013 -0.0009674746 0.0023638327 -0.004131879 -0.0016152739 -0.002418848 -0.0024721515 -0.003380518
0.0022599283 -0.0024191523 0.0016617936 0.0031182186 -0.0011191944 0.002633719 0.00016088947 0.0015712114
-0.0018575784 -0.0015019263 -0.00027113708 0.00087961066 0.0043655187 0.00021829264 -0.0015328367 0.00042766603
-0.0019392975 0.0008584314 0.0022045793 -0.0029713928 -0.0019816712 -0.0018965601 -0.000278126 0.0006762212
-0.0020384907 0.0027129976 0.0065562143 -0.0011807993 -0.004321584 0.00015986897 -0.0027617645 0.00304426
-0.0051408536 0.0015827832 0.00011152613 0.0035171367 0.0019290285 0.004031018 -0.0014227042 -0.002698044
0.0008563554 0.0002027458 0.0034376145 0.005710807 -0.0012275451 0.0048750653 -0.0013862965 0.0005674434
0.002088215 -0.0030445706 0.00321862 0.00084169453 0.00029936037 -0.0012423767 6.431731e-05 0.0014158334
-0.0017584134 0.0035587894 0.0010725417 0.0023023644 0.004424797 -0.009910213 0.004953744 -0.0042368956
-0.00488129 -0.0008756012 -0.0033761403 -0.005542895 0.0033215017 0.00048266453 -0.0037836763 -0.00033546635
-0.0052962187 -0.00569638 0.0020921933 -0.0056368327 0.0017524919 -0.0016118204 -0.0027783941 0.0010652344
-0.0042277863 -0.003486294 -0.0007497229 0.0010862066 -0.0011525326 -0.0021252627 0.011589056 0.005676526
0.005323426 0.015679596 -0.0015944856 0.022047356 -0.013536813 -0.012736715 0.017424086 -0.0043161414
-0.0039476366 0.000702489 0.0050154515 0.0023206805 -0.0077353003 -0.0061549656 -0.009358756 -0.004453945
0.0073364736 0.0009814275 0.007714174 -0.014004976 -0.0015677895 0.011549831 -0.003265707 0.008425199
-0.0006517109 -0.004718398 0.0076542287 -0.009256576 -0.0014932563 -0.003155251 -0.0016910068 -0.0036405257
0.0011861345 0.0011482411 0.0033085293 0.011079331 -0.001286898 0.00023149152 0.002040626 0.0023378183
-0.0030954857 -7.309018e-05 0.008604288 0.0032970887 0.008048338 0.0026944736 -0.0030461755 0.002405537
-0.0026088827 0.0050934413 0.0004744023 -0.004852762 -0.0011149964 -0.001660655 0.00084546517 0.00032681524
-0.0007014837 0.0027111312 -0.00019517916 0.0017377655 0.0025157211 0.0019234186 -0.0027255544 0.0025857538
-0.0031586909 -0.0027743725 0.0014198319 -0.0032440666 0.00082597625 0.0007295744 0.0013269172 0.00095690385
0.0018710241 8.559008e-05 -0.0031614294 0.0007319973 0.0013461378 0.00028405368 0.001360755 -0.0028290763
-0.0013204935 0.0035536152 0.002664133 0.002902154 0.0012480658 -0.0010680272 0.0021778748 -0.0028375927
0.0046275305 -0.00020268152 0.0037997286 0.0005181338 -0.0037070997 0.0045101386 0.000721729 0.0014625574
0.004788755 -0.0009780675 0.0025836125 0.0037485103 -0.0003510301 -0.0012180742 -0.0014046734 -0.00025543058
00000000: c8dc 053b bc1d ae3a 968a ca3a 04cc 943b
00000010: 4917 d8ba 7e13 f03a d412 97ba a91e 48bb
00000020: efa3 843a e883 f4ba 7b60 7039 d1ed fa39
00000030: e694 b03a 85a4 c43a 09da fcb9 ce4c 713a
00000040: c5d3 4dbb 62c4 3cb9 077f 893a f40b cab9
00000050: ac59 813a de14 09bb 162f ecba 8450 063b
00000060: 86a9 053b 33df a73a 00b4 ffba dc50 4cb9
00000070: 036d 923a 0adc 02bb 3e09 1f3b d5a9 673b
00000080: 7ff3 283b 654a 8f3b 185b 12bb 7304 c539
00000090: 54fb b4bb ec15 a2bb 58a4 703b 2754 f7ba
000000a0: a599 7aba 1992 0dbb 4d8e 3f3b 8577 153b
000000b0: b385 20bb 934e 30bb f77c e4bb 7bc5 52bb
000000c0: a88e 593b fdd2 a4ba 0739 703b c30b 8ebb
000000d0: a109 5ebb c396 803b a08a a63a 1943 5b3b
000000e0: 17e3 a13b 1f9e 7dba 88ea 1a3b b764 87bb
000000f0: 99b7 d3ba 8985 1ebb d203 22bb ae8b 5dbb
00000100: 4e1b 143b a48a 1ebb 8ad0 d93a 075b 4c3b
00000110: efb1 92ba 799a 2c3b 70b4 2839 1bf1 cd3a
00000120: fd79 f3ba 49dc c4ba 6727 8eb9 ac95 663a
00000130: a00c 8f3b 7ce5 6439 77e9 c8ba 5d38 e039
00000140: 0730 feba 5b08 613a b47a 103b b3bb 42bb
00000150: edde 01bb ff95 f8ba 71d1 91b9 7044 313a
00000160: 3398 05bb 8ccc 313b 83d5 d63b 0dc5 9aba
00000170: 139c 8dbb 80a2 2739 b8fe 34bb 3582 473b
00000180: 9b74 a8bb 6475 cf3a 23e3 e938 c37f 663b
00000190: 75d7 fc3a a116 843b 087a baba abd1 30bb
000001a0: 0a7d 603a 2998 5439 9a49 613b b921 bb3b
000001b0: 94e5 a0ba 03bf 9f3b 64b4 b5ba 7bc0 143a
000001c0: 6fda 083b 6b87 47bb 7cef 523b 2aa5 5c3a
000001d0: 78f3 9c39 3fd7 a2ba 18e2 8638 7c93 b93a
000001e0: 907a e6ba 943a 693b 8794 8c3a 44e3 163b
000001f0: e3fd 903b 725e 22bc 0453 a23b a8d5 8abb
00000200: 3af3 9fbb 9a88 65ba 3c42 5dbb 2ca1 b5bb
00000210: 8dad 593b 230e fd39 8ef7 77bb 88e1 afb9
00000220: e78b adbb b3a8 babb 2e1d 093b 2eb5 b8bb
00000230: dfb3 e53a b843 d3ba b815 36bb 569f 8b3a
00000240: 3e89 8abb 4f7a 64bb 0d89 44ba 0c5f 8e3a
00000250: 9410 97ba fe47 0bbb 06e0 3d3c 2702 ba3b
00000260: 2270 ae3b 7f72 803c 0ffe d0ba a89c b43c
00000270: 82c9 5dbc a8ad 50bc f5bc 8e3c 6b6e 8dbb
00000280: 2d5b 81bb 3d27 383a a858 a43b 8f16 183b
00000290: 6778 fdbb 98af c9bb 7855 19bc 66f2 91bb
000002a0: cd66 f03b 3ea3 803a 2fc7 fc3b 2075 65bc
000002b0: 497e cdba 813b 3d3c 7905 56bb d909 0a3c
000002c0: 94d7 2aba cb9c 9abb 53d0 fa3b e5a8 17bc
000002d0: 5eb9 c3ba 54c8 4ebb c6a4 ddba e395 6ebb
000002e0: 1278 9b3a 9480 963a e9d3 583b 1586 353c
000002f0: 22ad a8ba 88bc 7239 06bc 053b 1536 193b
00000300: a2dd 4abb fe47 99b8 00f9 0c3c f813 583b
00000310: 2ddd 033c c495 303b 58a2 47bb 37a6 1d3b
00000320: caf9 2abb e2e6 a63b 33b9 f839 eb03 9fbb
00000330: 1225 92ba 56aa d9ba 35a2 5d3a 6658 ab39
00000340: c6e3 37ba 3cad 313b 02a9 4cb9 bcc5 e33a
00000350: ccde 243b 381b fc3a 379f 32bb c075 293b
00000360: 0a02 4fbb 3fd2 35bb a719 ba3a 689a 54bb
00000370: 5486 583a e940 3f3a f4eb ad3a bbd8 7a3a
00000380: 273d f53a d37e b338 fc2f 4fbb 82e3 3f3a
00000390: e470 b03a 0aed 9439 5c5b b23a 0668 39bb
000003a0: 6914 adba c5e3 683b bc98 2e3b 1132 3e3b
000003b0: 2496 a33a 0cfd 8bba adba 0e3b e8f6 39bb
000003c0: 8aa2 973b e886 54b9 de04 793b 5fd3 073a
000003d0: d0f2 72bb c9c9 933b 6a32 3d3a 48b3 bf3a
000003e0: fdea 9c3b 8032 80ba d351 293b 91a9 753b
000003f0: 760a b8b9 caa7 9fba 051d b8ba 50eb 85b9
