40-10-3/Siyuan_AUG_12-200000.pt (torch, 37165 bytes, 24 tensors)

linears.0.weight f4 [30, 3]
00000000: e9fd bcbe 2212 583f fcc5 d3be 59ac 7bbe
00000010: 3a95 bdbe 8c4b 13bf 5b9c 9c3f e0ab 6440
00000020: e918 90be 80b7 aebd e3fc 85bf 95a5 a83f
00000030: 255e 60c0 27a4 c93f 828d 573d e403 5d3e
00000040: c2d8 183f 6692 a8be e0b0 ce40 d9fc 9a3f
00000050: 8fea 1b3f 8e81 6d3f 5bc6 54be 6e4f 593f
00000060: fb70 b73f 3b4a bcbf 1a46 0fbf c024 883f
00000070: 6c44 3c3e f2bf 2dbf d70e 8bbf af79 b7bf
00000080: ae48 853e c2dc 57bf 2a00 6940 6fbb 90bf
00000090: bc45 4c3f a798 cf3e 26b7 ecbe de1f 803f
000000a0: 03d7 0dbf 0f43 99bf de48 af3f bb74 67bf
000000b0: 95c7 aabe 2e82 d6bd 0a36 163e 5735 dbbe
000000c0: 2fd6 afbe eaa7 3f3b e197 1bbe 56ea 8fbf
000000d0: cb66 43bf 3586 c53f 3a6f cbbe adab d6bf
000000e0: 134c 1f3d 2e97 14bf 2bda b83d 501e 4f3f
000000f0: 4440 883d 26f9 0f40 966a 1b40 23cc db3e
00000100: d838 d23f 8f95 0ac0 aa3f 65be 1c75 213f
00000110: faee 3f3e 400a 5f3e ed04 593d bcd6 923e
00000120: 465c 473e c3a7 c6be e048 a9bf 49b5 01be
00000130: 434f 8abf e3a6 45be 15c6 1840 294c 2b40
00000140: cb5a 1cbe d171 7040 caeb cdc0 67cb 503e
00000150: ba9b 803f 863a 233e 4dc6 963f d71e 41c0
00000160: 90d7 12c0 4fc0 3c3e
-0.36912468 0.8440267 -0.41361988 -0.24577464 -0.37027913 -0.5753715 1.2235216 3.5729904
-0.28144005 -0.085310936 -1.04678 1.3175532 -3.5057461 1.575322 0.052625187 0.21583515
0.59705746 -0.32924193 6.459091 1.2108413 0.60904783 0.9277581 -0.20778792 0.84886825
1.4331354 -1.4710153 -0.5596634 1.0636215 0.18385476 -0.6787101 -1.0863904 -1.433401
0.26032013 -0.84321225 3.640635 -1.13072 0.79793906 0.40546152 -0.4623348 1.0009725
-0.55406207 -1.197359 1.3694112 -0.9041249 -0.33355394 -0.104740486 0.14669052 -0.42814133
-0.34343097 0.0029244372 -0.15194656 -1.1243389 -0.76328725 1.5431582 -0.39733297 -1.6771141
0.03889091 -0.5804318 0.09025987 0.8090563 0.06652883 2.2495818 2.4283805 0.4292918
1.6423597 -2.1653783 -0.22387567 0.6306932 0.18743506 0.21781254 0.052983213 0.28679454
0.19468793 -0.38799867 -1.3225365 -0.12666811 -1.0805439 -0.19301943 2.38709 2.6765234
-0.1526901 3.7569468 -6.435033 0.20390092 1.0047524 0.15940294 1.1779267 -3.0175073
-2.294407 0.18432735

linears.0.bias f4 [30]
00000000: c024 6f3f a918 043f 47ed 4d3f 6524 3bbf
00000010: 1b40 9d3e 2302 073f b75e 8f3f 0c0c afbf
00000020: b967 803e feb3 933f 6ba1 a43e d0cf 4abe
00000030: 92d8 c93d 3e75 2fbe c909 443f a6c6 a73e
00000040: 8ecb 8a3e 11a9 03bf bf0c 823e 919f a3be
00000050: 3d72 57c0 4691 fabd ac25 98be e435 7dbf
00000060: d090 bd3f f79d d2be 48c5 303f c6f8 ac3d
00000070: ef0d cebf 0963 233e
0.9341545 0.5160013 0.8044018 -0.7310241 0.3071297 0.52737635 1.120078 -1.3675551
0.25079134 1.1539304 0.32154402 -0.19805837 0.09855761 -0.17134568 0.7657743 0.32768744
0.27108425 -0.5142985 0.2540035 -0.31957677 -3.3663476 -0.1223474 -0.2971624 -0.98910356
1.4809818 -0.41136143 0.6905103 0.08445887 -1.6098002 0.15955748

linears.1.weight f4 [30, 30]
00000000: 18ed ae3f eda4 8440 8898 a8bd 8d0e 20c0
00000010: 5a52 dcbe e62e b23f e286 063d 60dd c4bf
00000020: 32cc 20bf 7176 8e3e abd3 6bbe 35a3 e53f
00000030: a2de 493f 2512 173f 33f2 bd3e 4079 fc3f
00000040: 8005 813f 9ae5 65bf b82b 273e 6765 cebf
00000050: b36a 4dc0 cb0d 6d3f 145c 94bd c813 2fbf
00000060: a1b3 a840 ecf7 06bf aae3 323f fd60 c4bd
00000070: 6b78 b3bf 6cc5 5f3e 1f76 31bf 6323 ffbd
00000080: 9ce9 14be 3eda 49be 5db1 b23f 0c30 51bf
00000090: 8296 e4be fc8f 2e3e e278 513e afb5 733e
000000a0: a399 cc3f e607 5bbf aea6 8cbf 707b cdbe
000000b0: adff a43f c463 acbe 832f 353c 2ce3 20bf
000000c0: 0c83 863e e0e9 903f 5b79 3abf 43a7 623f
000000d0: 9889 5e3c 3764 f4bd 0586 57bf d046 2d3f
000000e0: c6c3 2cbf 4d29 13be c38f 9bbf e477 2ebf
000000f0: fad0 aebe 8f86 6d3e df1f d1bd f532 623e
00000100: 622e 5f3f 8ebc 953d 6291 60bf 79ce f1be
00000110: c33e 8e3d c63a 1cbe 8357 0a3f a7b5 8ebf
00000120: f4dd a1bf 8742 863e 5fa6 b4be 7a5c 363f
00000130: ebdb a0be adee 19bf af0b ffbd e331 febe
00000140: 1007 7e3f 32e8 fabd 8a04 293f 0f8b 843e
00000150: 987d abbe 95c1 ac3c f160 5b3e 518b 82bf
00000160: 12c7 c9be 1a2f 2dbf 79ed 02c0 a6d7 7ebd
00000170: 72b6 4abf 3435 a6be d643 903e 5845 f7bf
00000180: 7c95 91bf 8328 723e 6c5d 843f 8c6b 30bf
00000190: 966b 2abe fd6a 9c3f c07b 133e 4203 073f
000001a0: 94c5 523f a904 6f3e ebee 0a3e 0309 ef3e
000001b0: e3f6 10bf ad60 b83d 3995 4dbf de6b a33e
000001c0: bc10 8f3e 280e 26bf ab31 e83e 381d 03bf
000001d0: 204f 59bf 947a f83e 58f5 8fbf 8be8 8cbe
000001e0: 5b19 c73c 18f0 2a3f b7d9 c3bd 159b febe
000001f0: 274c c83e b444 79be b25b 3cbd d3e0 2f3e
00000200: ac62 e33e eb1b 72be edb7 413e a64b 7a3e
00000210: 9a7d 7ebe a2ca 55be 617e a7bd 662d b53c
00000220: b5c8 f43d b8e7 35bb 92b5 f6bd 3569 b13d
00000230: 871f adbd 6e9a 5dbe e745 d73b ce82 97be
00000240: 7683 dcbe 12b9 713e ea09 edbd 7464 d83e
00000250: 1104 3dbe 39e2 b5bc 6801 1dbe c444 053e
00000260: e014 a7be 4a4b f73e e1a5 c23c 72d1 be3d
00000270: 121b 583e 06fd a2be 60c1 a23e 7cbc 593e
00000280: 19dc 113c b821 af3d 5d4b 94be 649e acbd
00000290: 4871 9d3d 055f 8aba 5796 ab3c bc81 033e
000002a0: 3a2c eb3e 445c d4be a66e 4cbe e534 8abe
000002b0: 5b66 72bd edf0 91be 9dce fdbd c476 9abe
000002c0: 7add 7c3e bfae 943e a43b aabe a1a7 ecbd
000002d0: 5b90 02be 8db5 adbe a9dd 34be 3930 5d3f
000002e0: 693a e93e bb17 87bd 63b8 ac3e 169a 693d
000002f0: 34fd b23d 58f4 7b3e 5ba7 96be 2fce 393e
00000300: 78e9 2dbd c7b4 603e 7af2 2d3f 5344 99bf
00000310: 82a6 2bbf 839b a23e 948b e63d 9b41 b8be
00000320: d99f 803c 57d7 aabd 9b37 54bf fe73 86bd
00000330: a606 a9be b03f 18bf 5031 54bc 185a e73e
00000340: 4c0b 4c3e 430d 353d 9da4 1b3d 0f12 2cbf
00000350: 3de8 a6bd db49 91bd 1095 a33d 060e 023f
00000360: 4334 1f3d 4333 c03d a61d d23d 5d51 a23d
00000370: 0f07 b3bd 89f1 933e 9612 9ebd 6fdb 6d3e
00000380: 71af b1be 28f1 f9be 91f6 65be 5b62 d53e
00000390: 0db7 98bd 0334 c63e ed7c ba3e 3ae0 39be
000003a0: 4f28 6ebd 7a86 2fbe b45a 00be 8eb5 d7be
000003b0: 4258 1a3f d200 0d3e ecf6 a93e a752 9bbd
000003c0: 2239 50be 0dfc 413f fe94 d43e ecc2 893f
000003d0: f450 a63e 5e30 09bf 94e3 023f 12d7 6a3e
000003e0: 5ae3 0f3e 0b97 0bbf e7db 14bf 0584 d33d
000003f0: 6f03 a63e 244e ce3d 62cc 6f3d 37f5 d43e
1.3666105 4.1451325 -0.08232218 -2.500888 -0.4303158 1.3920562 0.032843478 -1.5380058
-0.6281158 0.2782474 -0.23029964 1.7940432 0.78855336 0.5901206 0.37098846 1.9724503
1.0079803 -0.8980347 0.16325271 -1.6124696 -3.2096374 0.9259917 -0.07244125 -0.6838956
5.2719274 -0.5272205 0.6987864 -0.095888115 -1.4021124 0.21852654 -0.69320863 -0.12457921
-0.1454224 -0.19712159 1.3960377 -0.8171394 -0.44646078 0.17047113 0.2045627 0.23799776
1.5984386 -0.8555893 -1.0988367 -0.40133238 1.2890526 -0.33669865 0.011058691 -0.62846637
0.26271856 1.1321373 -0.72841424 0.8853647 0.01358261 -0.11933177 -0.8418887 0.67686176
-0.67486227 -0.14371224 -1.2153248 -0.6815169 -0.3414381 0.23195861 -0.10211157 0.22089751
0.8718015 0.073113546 -0.87721837 -0.4722784 0.069455646 -0.15256795 0.5403978 -1.1149186
-1.264586 0.2622263 -0.3528318 0.7123486 -0.31417784 -0.60129815 -0.124534 -0.49647436
0.99229527 -0.12251319 0.6602255 0.25887343 -0.33494258 0.0210884 0.21423699 -1.0198766
-0.3940969 -0.67649996 -2.0457442 -0.062217377 -0.7918464 -0.32462466 0.28176755 -1.9318037
-1.1373744 0.23648266 1.034101 -0.68914104 -0.16642603 1.222015 0.14402676 0.52739346
0.8233273 0.23341621 0.13567702 0.46686563 -0.5662672 0.090028144 -0.8030582 0.31918234
0.27942455 -0.6486535 0.45350394 -0.5121646 -0.8488636 0.4853102 -1.1246748 -0.27521166
0.024304083 0.66772604 -0.0956301 -0.49727693 0.391206 -0.24342614 -0.045985885 0.17175607
0.44411218 -0.23643462 0.18917818 0.2444292 -0.248526 -0.2087808 -0.08178402 0.022116374
0.11952344 -0.0027756523 -0.120463505 0.08662645 -0.08453279 -0.21640942 0.0065696123 -0.29591984
-0.43069047 0.23605755 -0.115741566 0.4226414 -0.18458582 -0.022202598 -0.15332568 0.13014513
-0.32633114 0.48299628 0.023760738 0.09317292 0.21104077 -0.31833667 0.31788158 0.21263307
0.008902573 0.08551353 -0.28963748 -0.08428648 0.07687622 -0.0010556882 0.020945711 0.12842458
0.4593218 -0.41476643 -0.19964084 -0.2699348 -0.059179645 -0.28504124 -0.12392924 -0.30168736
0.24693862 0.2903957 -0.33248627 -0.1155541 -0.1275038 -0.33927575 -0.17662682 0.86401707
0.45552376 -0.06596323 0.33734426 0.057031713 0.08739701 0.24604928 -0.29424557 0.18145059
-0.04245898 0.21943961 0.67948115 -1.1973976 -0.67050946 0.3175927 0.11257091 -0.35987553
0.015701221 -0.08341854 -0.8289735 -0.065650925 -0.33012885 -0.5947218 -0.01295121 0.45185924
0.19926184 0.0442021 0.037998784 -0.67215055 -0.08149765 -0.07094165 0.07987416 0.5080265
0.0388682 0.093847774 0.10259561 0.07925675 -0.08741581 0.28895214 -0.07718389 0.23228239
-0.34704164 -0.488168 -0.22457339 0.41676602 -0.07456789 0.38711557 0.36423436 -0.18151942
-0.05814391 -0.17141142 -0.125346 -0.42130703 0.6029092 0.13769844 0.331962 -0.07584124
-0.20334294 0.75775224 0.41519922 1.076261 0.32483637 -0.5358943 0.51128507 0.22933605
0.14051571 -0.5452735 -0.58148044 0.10327915 0.32424495 0.10073498 0.058544524 0.41593334

linears.1.bias f4 [30]
00000000: f20f 8a3e b876 0abe db7a c0be b974 0a3f
00000010: 50b1 56bd 6d5e bc3d 5795 dd3c 5b15 b23c
00000020: 9650 90be 8ae1 f23c 76c6 ae3e 9d9e 183e
00000030: 7653 cd3e 9609 4abd c8f9 8c3d 71d0 9c3d
00000040: c764 fabd 2a98 083e 757e 8ebe ab12 283e
00000050: 384e dd3d 1fd8 c5be ed69 163e d5e8 f63e
00000060: ff8e b7bd 4aee 0a40 2388 01be 49de 3abe
00000070: bce3 03be 299d a63d
0.2696529 -0.1352185 -0.3759373 0.54084355 -0.052415192 0.09197698 0.02704875 0.021738699
-0.28186482 0.029648561 0.3413579 0.14904256 0.40102738 -0.049325548 0.068835795 0.076569445
-0.12226253 0.13339296 -0.27830854 0.16413371 0.10805935 -0.3864145 0.14688845 0.48224512
-0.08962821 2.170794 -0.12649588 -0.18248858 -0.12879843 0.08135445

linears.2.weight f4 [30, 30]
00000000: 9a40 173d e3c4 e8be 4ecc b03d 69e5 b73e
00000010: a4c2 65bf 38c0 dbbe 2901 31bd 9754 cf3e
00000020: c3cf 9abf b28b 85bf be56 f9be a5a1 d3bd
00000030: 828f d33e ca60 45be c2f1 b43e fc90 6fbf
00000040: a50f 33be 7c88 e93e 6b69 8a3f db17 87be
00000050: 3366 fb3e ca2a 8ebe 5ee6 3c3f 10b3 2a3f
00000060: 3264 bfbf 8fcb d2be 8d63 41bf 84ca 37be
00000070: 09e6 2bbf a6bf 0f3e cf66 883d c200 223f
00000080: 1509 5c3e ae7b e2bd 49a2 9b3e b983 803e
00000090: 9b97 963d 907e 90bd 976d d8be 6cfc 543e
000000a0: 6e2c 833e aa64 2abe 82e1 83be 8367 e33d
000000b0: 39eb e33e 6e98 9a3d 4f6d d23e 42c0 cf3e
000000c0: cbce b0bc f52b 34bf 2954 9fbe f039 f03d
000000d0: 5ae2 7b3e 2766 d53e 5707 5b3d 7db6 11be
000000e0: 2cde c13e 46f2 833e d497 393e ed03 933c
000000f0: 3980 eebd 27e4 4a3f a2a2 19be 4736 3e3e
00000100: 3460 44be fb01 8abe 4bd9 d1bd cfde 50bd
00000110: ed48 7a3f cabc e93d 0f71 9d3e 648c 9d3e
00000120: 3563 c8bd e14e cebe 6e70 9e3e 3991 193e
00000130: e09c b0be ce89 bc3e df31 d83c 4c95 e53d
00000140: 1037 cdbc 7abe 29be 4736 2abd 6716 8e3d
00000150: e609 d8be ddb8 ccbd e1a3 25bc 13c0 133f
00000160: 6a1e 98bd 1a0a c13d 2278 2e3e af55 7cbd
00000170: f126 a93e f700 843d 66cd b0bc c893 573e
00000180: aba3 1d3f aa5d abbe 0905 c03c b5c6 f83d
00000190: f6c7 c13e 8f87 5ebe 0819 22be ce1d b8be
000001a0: 5a58 3b3e 0c0c eebc 755a 3c3c 163a b7bd
000001b0: 37d7 c23e 9f17 813c bb10 ec3e 1828 90be
000001c0: 6491 263e caf1 303e a53f a7be 7567 103f
000001d0: d207 9ebe 72b1 163f 414a 78be c2f0 87bf
000001e0: 45fa c5bb b7e3 ddbe d4d7 65bf 568b b93e
000001f0: 850a 49bf 79ed 913c 9147 3abe 31c8 a53e
00000200: 5121 08be 6cca c6bd 8bf6 32bf 020d 903e
00000210: 46ae e03e 697d 90be ae51 99be 38ba 483e
00000220: 3bf4 0fbf 12f3 a1be 2c8a 13bf af0e f83e
00000230: cbfe be3d 2cc7 1f3f 1684 a7bd 7759 c6be
00000240: 629c b8bd 3030 c9be 9092 903e f211 bdbe
00000250: 566e 83bd d8fe eabe 4eab 84bc 8d73 1840
00000260: 2c96 103f 20cd 08c0 4a56 26be e194 2f3f
00000270: a9bb 89bd 6f48 ef3e 0098 91bf 6aa0 76bf
00000280: 17d6 01bf 24f1 363e 4fb8 6abf 012c 16bf
00000290: de42 16bf bd3e 76be 1916 7dbe b446 643e
000002a0: 6c9d bfbf 93f2 083f 5652 45be 3d5a 973f
000002b0: 17e3 023e a71d b13f 3eff d2bf 9e88 d33e
000002c0: a4e7 adbf d426 4bbe 9c0a 8f3d 7799 50bf
000002d0: a386 d6be c5e9 aabe d008 bcbe 2812 963d
000002e0: 96e0 8cbe 64b5 733e 82df 663b e002 9b3e
000002f0: 18f3 703d 6f11 3abe 531d 0f3e 286e 77be
00000300: ee8a 153f a0be 94bd a81d ac3e 3b36 d7bc
00000310: 2210 b43d b17a b03e 4e88 603e 4cec 233f
00000320: 6c5e 7dbc 008f 19bd b4bb 4e3e fce4 cb3c
00000330: e5aa f93d 24cf 843d 955c cabe 517d 9e3d
00000340: 5796 f4bc 5f1d 0cbe 8ceb babf 0e9b 213d
00000350: 4236 7abe 9717 4ebd 844c 08be dae0 e93d
00000360: 2765 ad3e 5875 913d 60b7 00bf 40b0 bdbf
00000370: 6d7e 9d3c ccbb 1dbe 41b8 5c3f a3f6 0bbf
00000380: 54db db3d 0926 e03e 44f4 6b3f 69fc 68bc
00000390: bdaf 083f dfc5 e73e c4ab 81be aaa9 443e
000003a0: 0442 c7bd 408d 513e 71c0 20bf fab3 5abe
000003b0: db60 02be bbd5 923f 3177 09bf 14f7 7cbe
000003c0: d3ec 913e aa0a d6be 59e1 f83e ce05 6d3e
000003d0: cbe1 82be f523 c4be f673 64be b2d4 aa3e
000003e0: 457e 7e3e f563 1b3e 27ba d8be 5615 983d
000003f0: 9dae 97be 4688 1fbe 91dd 9abe 4c67 883d
0.036926843 -0.45462713 0.08632718 0.35917214 -0.89750123 -0.4292009 -0.043213997 0.40494224
-1.2094654 -1.0433257 -0.48698992 -0.103335656 0.41320425 -0.19275203 0.35340697 -0.93580604
-0.17486437 0.45611942 1.0813421 -0.26385388 0.4910141 -0.2776702 0.7378901 0.6667948
-1.4952452 -0.41170928 -0.7554253 -0.17948347 -0.6714788 0.14037952 0.06660234 0.63282406
0.2148784 -0.11058746 0.3039725 0.25100496 0.07353135 -0.0705539 -0.4227111 0.20799416
0.25619835 -0.16639963 -0.25757986 0.11103728 0.44515398 0.07548605 0.4109902 0.4057637
-0.021582982 -0.70379573 -0.31118897 0.11729801 0.24598065 0.416795 0.053473797 -0.1422977
0.37864816 0.25770777 0.18124324 0.017946208 -0.1164555 0.7925438 -0.15003446 0.18575393
-0.19177324 -0.26954636 -0.102465235 -0.050993737 0.97767526 0.11412962 0.3075032 0.30771172
-0.09784547 -0.40294555 0.30945152 0.14996804 -0.34494686 0.36823887 0.026390968 0.11210117
-0.02505067 -0.16576567 -0.04155567 0.06937867 -0.42195052 -0.099961974 -0.010109873 0.57714957
-0.07427676 0.09425755 0.17038015 -0.06160515 0.33037522 0.064454965 -0.021582317 0.21052468
0.6157786 -0.33469898 0.023439901 0.12147275 0.3784787 -0.21731399 -0.15829861 -0.3596024
0.18295422 -0.029058479 0.011496176 -0.08946626 0.3805482 0.015758334 0.46106514 -0.2815559
0.162664 0.17279735 -0.32665744 0.5640786 -0.3086534 0.5886451 -0.24247076 -1.0620348
-0.0060417973 -0.43337795 -0.8978245 0.36239117 -0.78531677 0.017813431 -0.18191363 0.32379296
-0.13293959 -0.09706578 -0.69907445 0.28134924 0.4388296 -0.2822068 -0.2994513 0.19602287
-0.5623204 -0.3163076 -0.5763271 0.48448703 0.09325942 0.6241329 -0.0817949 -0.3874013
-0.09014203 -0.39294577 0.28236818 -0.36927754 -0.06417529 -0.45897555 -0.016194966 2.3820527
0.56479144 -2.1375198 -0.16243854 0.68586546 -0.067252465 0.4673495 -1.1374512 -0.9633852
-0.507173 0.17865425 -0.9168748 -0.58660895 -0.5869578 -0.2404737 -0.24715461 0.22292596
-1.4969916 0.5349514 -0.1926969 1.1824414 0.1278194 1.3837174 -1.6484144 0.41315168
-1.3586316 -0.1983903 0.069844455 -0.8148417 -0.41899595 -0.33381477 -0.36725473 0.07327682
-0.27515095 0.23799664 0.0035228436 0.3027563 0.058825582 -0.18170713 0.1397603 -0.24163115
0.58415115 -0.07262921 0.33616376 -0.026270976 0.087921396 0.34468606 0.21926996 0.64032435
-0.015464406 -0.03748989 0.2018879 0.024889462 0.12190799 0.064848214 -0.3952376 0.07738746
-0.029856844 -0.13683079 -1.4603133 0.039454512 -0.2443476 -0.050315466 -0.13310438 0.1141984
0.33866236 0.0710246 -0.5027981 -1.4819412 0.019225324 -0.1540367 0.8621865 -0.5467321
0.10735193 0.4377902 0.92169595 -0.0142203355 0.53393155 0.4526815 -0.2532636 0.19205347
-0.09729388 0.20464039 -0.6279364 -0.21357718 -0.1273226 1.1471475 -0.53697497 -0.24703628
0.28500995 -0.4180501 0.48609427 0.23146746 -0.2556289 -0.38308683 -0.2230986 0.333654
0.24852856 0.1517485 -0.42329523 0.074259445 -0.29625407 -0.15579328 -0.30247167 0.06660327

linears.2.bias f4 [30]
00000000: 5c01 713f 85b9 82bc 0e6c 2f3e 3d86 01be
00000010: 7097 ca3d 7c37 c4be e431 d83d a431 f9bd
00000020: e5d5 a83d a20d 8b3f a47d 3bbd 4162 9d3d
00000030: 5979 d03d 73d1 f83e d954 dbbd 8647 03bc
00000040: 1e71 183e f523 d6bd 4aa9 093e 901f 41be
00000050: cfd0 40bd eed2 523d 94b1 09be 5d2b bc3d
00000060: ea0f f8bd b7a7 023e 65dd 1bbd 88d8 aebd
00000070: 91e6 413f df0e 263f
0.941427 -0.015957603 0.17131063 -0.12648864 0.09892166 -0.3832358 0.10556391 -0.12167671
0.08243922 1.0863535 -0.045774117 0.07684756 0.10179395 0.48597297 -0.10709543 -0.008012658
0.14886901 -0.10456077 0.13443485 -0.18859696 -0.047074135 0.05147069 -0.13446647 0.091879584
-0.1211241 0.1275929 -0.038052935 -0.08537394 0.7574244 0.6486644

linears.3.weight f4 [3, 30]
00000000: ba14 90bd c19c 24bf afd2 753e 7845 a33e
00000010: 2638 c6be 0957 1fbf 1076 e3be 3b94 163f
00000020: e762 71be 2835 733d 5e8d afbe 4c33 ab3e
00000030: 324d 893e c987 b1be 58c6 b13e 5600 f63e
00000040: 7f98 f23d 6676 37bf 0725 79be 166f d83e
00000050: 9217 233d 27e5 b63e 512a d43e a6a7 f9be
00000060: 674b c63e d693 efbe f086 95bd e2dd 10bf
00000070: 46d8 933c 271d 6bbe 2ce5 d2be cf47 143d
00000080: 5a61 debc 6238 39bf 86db a53c 6262 063f
00000090: 56ff 8e3c e74a 09bc e124 ae3c 20a2 8a3f
000000a0: b5c0 5d3c 8372 413f 83e2 f7bd 803f b3bd
000000b0: 9755 afbd a40c 963d 0512 4e3e f870 233c
000000c0: a602 ebbc 7c55 8a3d f706 533d 894a 68bd
000000d0: 081e eabb da3c b03b 4aeb 39bd 68a6 b2bc
000000e0: 1160 2ebe af97 a7bc f765 4dbf 6bd2 b13e
000000f0: 5c57 b33e 5c28 8dbd 7ce1 7e3e 6a19 97be
00000100: a8a7 85bd 14fe 8cbe 5d10 d8bc 7cce df3c
00000110: 90b4 bf3d 4ebc 093e 9fd8 b73d e0aa 093f
00000120: 30bd c63e e51b 3e3e dc5a dfbd f3ca bbbc
00000130: 543b 1d3f ee3d 9dbd 17af f73e 4df0 90be
00000140: 3c6b c93e d738 e4bc 80c9 e5bd 81d2 e33d
00000150: 6ae1 5bbe 78cd b8be b74b 66be ca42 513d
00000160: ba0c 323e 4502 64bc
-0.07035203 -0.6430169 0.2400615 0.31888938 -0.38714713 -0.6224218 -0.44426012 0.5881993
-0.23572885 0.059376866 -0.34287542 0.33437574 0.26816708 -0.34673908 0.34721637 0.4804713
0.118454926 -0.71665037 -0.24330531 0.42272252 0.0398174 0.35721704 0.41438535 -0.48760718
0.38729402 -0.46792477 -0.07301128 -0.56588566 0.018047463 -0.2296034 -0.4119047 0.036201295
-0.02714603 -0.7235166 0.020246278 0.5249387 0.017455738 -0.0083796745 0.02125782 1.0830727
0.0135347145 0.75565356 -0.121037506 -0.08752346 -0.08561247 0.0732663 0.20124061 0.009975664
-0.028687786 0.06754586 0.051520314 -0.056711707 -0.0071446933 0.005378348 -0.045390405 -0.021807864
-0.17028834 -0.02045807 -0.8023371 0.3473085 0.35027587 -0.068924636 0.24890703 -0.29511577
-0.065261185 -0.27537596 -0.02637499 0.02732014 0.093606114 0.13450739 0.08976864 0.5377636
0.38816214 0.18565328 -0.10906002 -0.022923922 0.6141865 -0.07677828 0.4837577 -0.28308335
0.39339626 -0.027859135 -0.11220074 0.11124135 -0.21472707 -0.3609426 -0.2248982 0.051089086
0.17387667 -0.013916557

linears.3.bias f4 [3]
00000000: 2edb 2c3c b8e0 003e 49c6 733e
0.010550303 0.12585723 0.23806109

exp_avg f4 [30, 3]
00000000: c2b9 daba f0da ea3a 70b7 1ebb 66ca 1b3a
00000010: 6001 813a ede8 afb9 d185 5d3a e848 82ba
00000020: 761b a93a f290 79ba 12e1 f5b9 ea21 87ba
00000030: 21c8 0738 1a29 ad37 0278 2139 ee16 17bb
00000040: c888 2e3b 3010 70bb f481 6c37 5b5b d1b7
00000050: 5325 6fb7 b700 d038 b623 d336 df25 ac39
00000060: 8aa3 c1b9 4d15 79b9 46ac dfb9 f4b2 e3b9
00000070: 1ee7 39ba 16a3 c03a d052 20ba 982d ec3a
00000080: 434b c2ba 3549 9f39 bcd6 03b9 8486 dbb9
00000090: 308a ce36 7ab3 e4b9 bc2b a4b9 d569 37b9
000000a0: 99b6 e93a ca31 2ebb 8e8c 0a38 102e f739
000000b0: bb65 a33a 57d8 f33a d58d 07bb 6bab 1c3b
000000c0: f6b3 883a 79e0 df38 7c7d 1c3a 33e9 cab9
000000d0: d530 9f3a a4c0 84ba bbcb 9139 2f06 c5b9
000000e0: 4774 cb39 3448 be38 d61b 07b8 bcb0 0fba
000000f0: 4982 fe38 7db9 77b9 1aec eab9 4d8c 2239
00000100: b1c3 0739 e13b 6039 6302 cdb9 8b44 233a
00000110: 0977 f7ba 6940 9137 bd0e fab9 aa09 863a
00000120: 4903 9838 1962 7139 979c 62ba ffac 4b3b
00000130: 8cef 54bb 5347 d03b f2f0 ef39 8f7a 47ba
00000140: e69b 2a3a 28d5 b9b8 5337 fc36 2127 9438
00000150: b7d4 f3b9 7572 e939 65ec dbba 0c8e 953a
00000160: a34e 91ba 06ec 9c3a
-0.001668744 0.0017918032 -0.0024218224 0.00059429405 0.0009842329 -0.00033552144 0.0008450421 -0.0009939941
0.0012901861 -0.0009520195 -0.00046897732 -0.001030979 3.2372893e-05 2.0642346e-05 0.00015398863 -0.0023054439
0.002663182 -0.0036630742 1.4096953e-05 -2.4957282e-05 -1.42542e-05 9.918346e-05 6.2924473e-06 0.00032834613
-0.00036933675 -0.00023754426 -0.00042662228 -0.00043430144 -0.0007091629 0.0014697041 -0.00061158556 0.0018018959
-0.0014823455 0.00030381387 -0.00012573128 -0.00041871157 6.1553656e-06 -0.0004362127 -0.00031313102 -0.00017491665
0.0017830908 -0.002657997 3.3032666e-05 0.0004714583 0.0012466231 0.0018603903 -0.0020683904 0.0023905884
0.0010429609 0.0001067528 0.00059696264 -0.0003870219 0.001214529 -0.0010128212 0.00027808346 -0.00037579375
0.0003880581 9.073355e-05 -3.2212432e-05 -0.00054813526 0.00012135931 -0.00023624855 -0.00044807867 0.0001550179
0.00012947504 0.00021384611 -0.00039102425 0.000622817 -0.001888008 1.731534e-05 -0.00047694697 0.0010226269
7.248537e-05 0.00023020095 -0.00086445495 0.0031078456 -0.0032491414 0.0063561588 0.0004576515 -0.000760951
0.0006508216 -8.861191e-05 7.516626e-06 7.064478e-05 -0.00046507057 0.000445265 -0.0016778825 0.0011410131
-0.0011086058 0.0011972196

exp_avg_sq f4 [30, 3]
00000000: 3530 113c afdd f33b 98f8 a43c 68d9 433c
00000010: d43b b63b cc1f 4d3f 58db 333b d397 513b
00000020: 68c4 8c3c 5024 403e 34c4 633b b285 a13d
00000030: 8914 2338 be00 ec38 d856 a03b bb56 823c
00000040: 653e 903c 8cab 513d 2f1e a337 b4a1 8d36
00000050: bc3d 3737 f18c 063a ed9a 2e39 1df2 5f3c
00000060: 1ba8 443c 675f e43a f46f 063b 8033 df3c
00000070: df85 9a3a bc4c ab3c 1878 df3c 3692 f33b
00000080: d252 8a3c f995 583a 47ba 8839 2102 e93b
00000090: efe9 253b 230b 8e3b 334d 0f3e 614a 1d3c
000000a0: af8c 583c 4218 ad3c 7475 173a ac80 583b
000000b0: 93f2 843d bac3 683c d85b 0f3c 0010 8c3e
000000c0: 4e1b 253d 051c 623a 38ad fe3b 2511 953b
000000d0: 8106 6e3b 1eab 803c daf8 743c da84 a63b
000000e0: 14ff 8c3d 72be 893a 75aa 1a3a 877c 073d
000000f0: 0a93 013a 5685 b238 8101 883c 10fc 863c
00000100: 0fa8 e43a 4983 013a 1ff3 293c 0eda 733a
00000110: d0bd 523c 49ed 7a3b 2ff3 f039 486a 253b
00000120: 4c33 213c c6b9 513c 9d12 b33d eaf0 cf3d
00000130: 088d c23c dace b33d 9117 9f3b f82d a73a
00000140: 91ee ee3a cbb7 d038 3a78 4f36 84ff 9139
00000150: cc22 0d3a c9e0 a73a a76c f23c 0440 703b
00000160: 9b40 3d3b ead7 db3b
0.008861591 0.007442198 0.02013807 0.011953689 0.0055613313 0.80126643 0.0027443971 0.0031981363
0.017183498 0.18763852 0.0034754397 0.078868285 3.8881353e-05 0.00011253495 0.004893165 0.015910497
0.017607877 0.05118899 1.944517e-05 4.220952e-06 1.0922024e-05 0.0005132696 0.00016651647 0.013668564
0.01200297 0.0017423452 0.0020513507 0.027246237 0.0011789164 0.020910613 0.027278945 0.007433201
0.016885195 0.0008262094 0.0002607873 0.0071108495 0.0025316437 0.0043348237 0.13994293 0.009600253
0.013217135 0.021129731 0.0005777695 0.0033035679 0.0649158 0.014206821 0.008749925 0.27355957
0.040309243 0.0008625391 0.007772114 0.004549163 0.0036319795 0.015706595 0.014951909 0.005081755
0.0688459 0.0010509028 0.0005900034 0.033077743 0.000494287 8.512537e-05 0.01660228 0.016477615
0.0017445105 0.00049405225 0.010372906 0.0009302207 0.012862638 0.0038288406 0.00045957553 0.002524035
0.00983889 0.0128006395 0.087437846 0.101533726 0.02374889 0.08779688 0.0048551043 0.0012754789
0.0018229057 9.952447e-05 3.0915385e-06 0.0002784693 0.0005383908 0.001280808 0.029592825 0.003665925
0.002887762 0.0067090886

exp_avg f4 [30]
00000000: 7282 85bb 509c d6ba dedf f03a 2678 2abb
00000010: 46a2 033a fad3 9fbb 5dbe 0b38 3b38 083a
00000020: f32a beba cf1f fd3a 6872 a6ba b2ba 4039
00000030: f708 2f3a f954 deba eee0 0cba 28d8 893b
00000040: 1d53 e93a 187d 09bb 94a3 1738 b361 3a3a
00000050: 2b44 c03a 6eb5 1c3b 5614 14bb 67af 953a
00000060: 1411 dfba bcf2 1b3c 8521 2c3a 7c42 8038
00000070: 2eae 8dba ce0f 1c3b
-0.004074388 -0.0016373489 0.0018377264 -0.0026011555 0.0005021434 -0.0048775645 3.3317472e-05 0.0005196367
-0.001450865 0.0019311848 -0.0012698891 0.00018380096 0.0006677056 -0.001696258 -0.00053740933 0.004206676
0.0017801259 -0.0020979103 3.615355e-05 0.0007109895 0.0014668753 0.0023911851 -0.002259513 0.0011420072
-0.001701864 0.009518322 0.0006566274 6.115899e-05 -0.0010809356 0.0023813131

exp_avg_sq f4 [30]
00000000: adde 323d 9858 9d3f ec1d 203d c4d9 413e
00000010: 5646 583c c16d 6b3d c2ba ac37 ea56 803c
00000020: 54f9 483c f11a 8f3d 079c 3c3d d940 203c
00000030: 14f4 5e3e 7488 b93d 8319 b33d 0189 003f
00000040: 9948 d73c a153 233d 4ce5 fe3d c76b aa3d
00000050: a963 8e3c 75df a63c 2210 e63c ae9f 2a3b
00000060: feb0 e13d c5a6 703e 1db6 7f3b 3151 9239
00000070: 0c1b f53c 9d44 823c
0.04366939 1.2292662 0.039091036 0.18930727 0.013200363 0.057477716 2.0590964e-05 0.015666444
0.012266476 0.069875605 0.046047237 0.009781086 0.21772796 0.090592295 0.087451 0.5020905
0.026279734 0.039874677 0.12446079 0.08321338 0.017381506 0.020370224 0.028083865 0.0026035118
0.11020087 0.23501118 0.003901846 0.00027907782 0.029920124 0.015901858

exp_avg f4 [30, 30]
00000000: f212 4c38 22b1 02b8 93c9 3639 68e8 3439
00000010: ee76 4f39 3ddd a2b7 fbe1 e9b8 dc39 e138
00000020: 4042 75b9 7767 3db9 1e3d 67b8 dc19 c539
00000030: 81ef 5db7 6b92 8238 552a b5b8 5c4c d7b6
00000040: 78bb 2eb8 af6e 90b8 6184 dab8 94b1 2838
00000050: d859 743a 2948 f638 24b5 8738 59c0 4439
00000060: 2424 33b9 e0de 3c38 18f0 15b9 3f6e 8eb9
00000070: 6efe 9039 fec0 5439 a5c6 c838 6a89 d7b8
00000080: 2b26 9339 3eaa 18b7 4fc7 0d3a 9784 19b7
00000090: 2b6f 14ba 79f1 0cb8 3b96 f3b9 5ec2 46b9
000000a0: fde9 a0b8 4f01 d939 7f34 e2b8 133a 84b9
000000b0: 7830 3fba 7c83 45b7 2b5f a837 0239 2c39
000000c0: ec6e 1db9 ef86 4c39 2639 d139 771f 5139
000000d0: 7d0e 6839 dba6 f738 862f 3db9 06be 0eb9
000000e0: 4bee 06b9 4a42 8ab8 8cad 4639 4deb c238
000000f0: 5ee8 5039 8a90 8bb7 14b5 7939 f4cf 5eb8
00000100: 1af1 e938 aa79 0239 1e5c 5039 9e93 f1b7
00000110: 2dfb fcb7 683c 1039 65d1 4cb9 ba61 8a38
00000120: 579b f437 a35a 0bb9 f165 2bb7 d461 1638
00000130: 0dfe 5d38 ee66 5c38 cd23 3db8 890e f537
00000140: 19b4 0fb9 19cf 3c39 39df 42b8 6349 6bb9
00000150: 892a c3b8 5677 17b9 e3fd f738 3d39 10b9
00000160: 8079 e937 7fec 0b39 eb5b deb8 5d8b 1537
00000170: 4b6b d538 b5f4 0eb9 1c66 8038 f086 4bb7
00000180: a1f8 b6b7 415b 2339 3085 01b9 54dd ebb7
00000190: 4e3f d4b9 f0f8 3e39 88dc 7738 ac14 a239
000001a0: 1eb2 cdb8 b3b8 c737 de0d 88b8 518f 50b9
000001b0: 3317 48b9 c05c 3eb9 65be 7a39 a3c8 3f39
000001c0: 20be f337 b8a7 7d39 7169 3eb9 2bb1 2339
000001d0: 50f7 1ab9 ac25 41b9 eb8c 83b6 093b bab8
000001e0: 42e4 23ba 291a 26ba f8da ba3a cbb3 21ba
000001f0: b1f8 1c3b 1671 f2b9 03ed 31bb c9a4 723a
00000200: 89ca 42bb e4d9 06bb 0458 a0ba 122d 2f3b
00000210: bca8 7738 8ed8 103a dc72 2dbb 00fc bb38
00000220: 3081 32b9 5c54 19b9 16ad cdba 6060 8d39
00000230: 30de 263b c0cc 043b 5894 b43a 20eb 013b
00000240: 1d28 e8ba 7625 f739 fad3 79ba 05ed 24bb
00000250: 3d1b 963a ca30 d938 5676 8aba 09b1 c7b9
00000260: c3c9 8aba 0e72 443a c193 d738 be64 40ba
00000270: 0a8d 48b9 7f66 9b3a 4b47 d338 aeb2 9dba
00000280: c53e 2739 3c72 e3b8 261a c1b8 3a08 233a
00000290: d484 7db9 f44c aeb9 89ff ccb9 d25c c839
000002a0: 0f64 9039 8919 f338 7d91 673a 7b27 133a
000002b0: 0e89 1839 05b7 873a e5da 6fba a5c7 4a3a
000002c0: c8db 73ba d9ee 0139 c30b a33a 73d5 b0b8
000002d0: bc3d 17b9 e547 13b9 f07a 4539 5340 d336
000002e0: 008f 00b9 e80f 27b9 1852 ecb9 147f e6b7
000002f0: 7eca d2b7 9450 c9b9 10a4 4b37 fd37 2b3a
00000300: 76b9 c9b7 7134 fe38 fb02 05ba 218b 59b8
00000310: 389c c4b7 d29e 79b8 e2e9 cdb9 617f 2839
00000320: a672 7439 cbf4 9439 f843 a139 7bc8 c239
00000330: 57a3 c1b9 f22f d538 e25a 0e39 cb1e b1b9
00000340: cbbd 21b8 d976 1939 244c 03ba 7918 d8b9
00000350: 3108 5e3a 56d9 0dbb 487a 673b a32f 14ba
00000360: 65a8 67bb 0072 1d3a 0cb3 42bb 6f87 4dbb
00000370: 4144 d2ba ed50 9f3b 9da7 d939 2813 ff3a
00000380: ac35 2ebb 0c3d c639 7bab 97b7 85d3 f9ba
00000390: 5f37 10bb 0159 c8b9 d1a8 813b a09f 603b
000003a0: 788f df3a 4575 133b bf18 30bb 4401 2e3a
000003b0: 5d81 00bb 43ad 7ebb 797d 3c3a aa54 8d3a
000003c0: cae2 94b9 772a c6b9 eb3c 64b9 d2d1 8539
000003d0: 5fa9 9aba 2fb5 07b9 7900 e939 faef 3c3a
000003e0: 9f04 6eba 511c deb9 c2f0 8ab9 8848 193a
000003f0: f187 4d39 a2b6 f5b8 ebdc acb9 03dd a9b8
4.8655034e-05 -3.1159383e-05 0.00017431965 0.00017252716 0.00019785363 -1.9414927e-05 -0.00011152398 0.00010739613
-0.00023389701 -0.00018062988 -5.513161e-05 0.00037594035 -1.322839e-05 6.2261555e-05 -8.6386375e-05 -6.4163887e-06
-4.1659427e-05 -6.8870715e-05 -0.000104197075 4.0219704e-05 0.0009321249 0.00011743635 6.471042e-05 0.00018763672
-0.00017084234 4.503026e-05 -0.00014299189 -0.0002716649 0.00027655385 0.0002028979 9.5737436e-05 -0.00010277594
0.00028066462 -9.099544e-06 0.00054084224 -9.150382e-06 -0.0005662317 -3.360349e-05 -0.00046460502 -0.00018955159
-7.672978e-05 0.0004139044 -0.00010786298 -0.0002522027 -0.0007293294 -1.1772729e-05 2.0071477e-05 0.00016424435
-0.00015014008 0.00019505223 0.00039906165 0.00019943515 0.00022130641 0.00011808957 -0.00018042148 -0.00013612965
-0.00012868007 -6.5927e-05 0.00018947403 9.294469e-05 0.0001992299 -1.6637397e-05 0.00023813947 -5.3122596e-05
0.000111552145 0.0001244309 0.00019870742 -2.8798178e-05 -3.0157704e-05 0.00013755413 -0.00019532962 6.598556e-05
2.9159402e-05 -0.00013289838 -1.0216129e-05 3.5853896e-05 5.292711e-05 5.2547948e-05 -4.5094454e-05 2.9213044e-05
-0.00013704634 0.00018006227 -4.6461097e-05 -0.00022438685 -9.3062474e-05 -0.00014444938 0.00011825168 -0.00013754233
2.7832342e-05 0.00013344175 -0.00010602906 8.91354e-06 0.00010176616 -0.00013633336 6.122535e-05 -1.21311605e-05
-2.1811868e-05 0.00015578886 -0.00012352015 -2.8117247e-05 -0.00040482957 0.00018212548 5.9094775e-05 0.0003091445
-9.808339e-05 2.3808656e-05 -6.487568e-05 -0.00019889815 -0.00019082129 -0.00018154364 0.00023912785 0.00018289922
2.9056391e-05 0.0002419044 -0.00018159092 0.00015610892 -0.00014778716 -0.00018419948 -3.9205092e-06 -8.880167e-05
-0.00062519696 -0.00063362956 0.0014255932 -0.0006168454 0.0023951943 -0.00046242093 -0.0027149327 0.0009256122
-0.002972277 -0.002057665 -0.0012233262 0.0026729745 5.9046535e-05 0.0005525433 -0.0026466167 8.9637935e-05
-0.00017023529 -0.00014622643 -0.0015691842 0.0002696542 0.0025462024 0.0020263642 0.001377712 0.0019823983
-0.001771215 0.00047139422 -0.0009530183 -0.0025165689 0.001145221 0.00010356454 -0.0010563831 -0.0003808814
-0.0010588694 0.0007493802 0.0001027952 -0.00073392305 -0.00019126027 0.0011856108 0.000100745434 -0.00120314
0.00015949745 -0.00010845481 -9.207828e-05 0.00062191824 -0.00024177443 -0.000332452 -0.000391003 0.0003821613
0.0002754037 0.00011591899 0.000883363 0.0005613488 0.00014546906 0.0010354227 -0.00091497443 0.0007735438
-0.00093024643 0.00012391376 0.0012439418 -8.432092e-05 -0.0001442348 -0.00014045795 0.00018833182 6.2957783e-06
-0.00012260303 -0.00015932287 -0.00045074592 -2.7477312e-05 -2.5128244e-05 -0.00038397743 1.2137942e-05 0.0006531475
-2.404743e-05 0.00012121432 -0.00050739915 -5.1866406e-05 -2.3437766e-05 -5.951414e-05 -0.00039274903 0.00016069181
0.00023312363 0.00028411145 0.00030758954 0.00037151933 -0.00036933526 0.00010165562 0.00013576032 -0.00033783013
-3.856215e-05 0.00014635491 -0.0005008599 -0.00041216964 0.00084698485 -0.0021644435 0.0035320688 -0.00056528504
-0.0035348174 0.0006006062 -0.002970877 -0.0031361242 -0.001604207 0.004861942 0.00041514347 0.0019460665
-0.0026582284 0.00037810986 -1.8080455e-05 -0.001906023 -0.002200566 -0.00038213286 0.003956892 0.0034274831
0.0017056307 0.0022500318 -0.0026870219 0.0006637762 -0.0019608357 -0.0038860596 0.0007190328 0.0010782678
-0.0002839773 -0.00037797142 -0.00021766468 0.00025524065 -0.0011799744 -0.000129421 0.00044441575 0.000720739
-0.0009079668 -0.00042364237 -0.0002650079 0.0005847295 0.00019600966 -0.000117165284 -0.00032970993 -8.0997146e-05

exp_avg_sq f4 [30, 30]
00000000: 23bd 4839 8e78 7938 807c ca3a f897 b73a
00000010: e4cc 443a 76e3 b937 04b9 833a ad81 483a
00000020: e4f5 2e39 de35 8838 b36f 053b c37c 263b
00000030: c1e9 673a b29f d33a f34c 7d39 b81d 1838
00000040: 5279 d738 31cf 003b 9291 d53a 7e94 243a
00000050: 144a 1a3b 2498 113b 163c 4f39 eff4 763a
00000060: 13b6 2939 4d50 7b38 a868 b03a 424f 843a
00000070: 11a9 6e3a 5c38 073b 94e9 3f38 6f75 3438
00000080: 6a5d 8939 2e82 363a d8f4 603b 201e 6337
00000090: 3b31 9e3b efa2 4e38 01ca 143b 035b 983a
000000a0: 49c5 6939 0a8a 973b 342a 6f38 9186 0739
000000b0: 00af 2e3b b925 4c38 8ff4 1638 7287 a738
000000c0: e285 6f3a 1ed8 0c39 b408 953a aacf 853a
000000d0: f313 173a ff04 9d39 f125 0f3a 8407 b737
000000e0: 67c7 643a e137 d03b 3535 b838 32c6 333a
000000f0: cad4 873b 71f5 9e37 d77b a73b d756 c137
00000100: 0201 1b3b 1afb c43a 4107 bb3b 1600 763b
00000110: e53a b43a 6047 6f3b 56e6 1639 d4fd 0738
00000120: b9a5 dc38 93bc a43b 1e7a 963a fc70 ee37
00000130: 5826 5939 0fbb 5e3a 6fbb 2d39 5701 e239
00000140: 8b96 7e3b b0c4 c43b 3b7b 0338 de5d 7c3b
00000150: 7fa0 c83a 29ff 673b ad87 9f3b 92dc 8c3b
00000160: 8f44 433b 069e b33a 768d 1b39 0053 c837
00000170: 98f4 063a ab0c 093a e38f 6d39 f637 3338
00000180: 674f 2439 52aa ae38 77ac d139 83c8 cf38
00000190: e6c1 0039 4331 bf3a f3dd 8538 8bed 9b39
000001a0: 007b 113a 4e62 8938 4b5e 5b38 7679 8939
000001b0: 6737 8c39 ab61 b238 a495 b938 9e94 da39
000001c0: e3a8 dd38 e405 3438 71e5 1038 2707 c638
000001d0: fba2 2b38 aa01 1b3a 6bf6 6338 12f4 b538
000001e0: 82a9 573a 847a 803a a39a f23b bf81 e43b
000001f0: 4b1a 613c b72f 5f3a 9626 7e3c 5207 3b3b
00000200: e288 243c 3fe1 173c 8cd3 093c 70b9 9a3c
00000210: 803d 5a3b b960 fd3b f24a 473c b17e 5439
00000220: 4679 9539 6e1b 353c 65ec 133c 8455 513b
00000230: 471a 923c cc32 903c 7aca 763b 6b5e f33b
00000240: c80d 073c 67bb a839 ebf0 eb3b 9be2 913c
00000250: 1ff4 873b 2e74 433b ecec eb3b 4cc0 b43a
00000260: 798e a33c 4e8e 4b3b 82c9 aa3c f0b5 a53b
00000270: aa45 ee3c fd5b d13b a688 763b 6447 273c
00000280: c775 393c 9ba4 103a acea a83b 922a 613b
00000290: b609 f53b 5046 f039 32b9 803a 59c4 cc3b
000002a0: 1504 e33b f38d 9f3a 8448 173c 1fad eb3a
000002b0: 6393 1339 7c56 d13b 65fd be3b 5f3c f43b
000002c0: c072 e13c f93c 2f3b 1ac6 ca3b a9e5 f13c
000002d0: 0b1e 7f3b 55c9 c23a ce8b 9f3b c9cb c33a
000002e0: 5a31 043c e76e 1239 6277 f93b ec15 1a3c
000002f0: 3fe5 913a 2ac1 a13a fda8 2e3c 99de 093c
00000300: 1c2b 8f3b e371 223c 04aa 9c3a 6e59 9538
00000310: 31f1 ad3a 91fa f93b a178 cb3b 42e3 f83a
00000320: 3254 443c 5efb 3d3c 1415 623a 6364 e13b
00000330: 219e 853b 5ffc da39 d69b fc3b 9752 cd3a
00000340: 1fe5 253c 8241 633c 18ca 8d3c e34e 993a
00000350: a199 383b eb7d 0c3d 4881 6e3d e310 c53b
00000360: 33cd d23d 99b0 c73c 137b 0a3d 2b54 9c3d
00000370: 0863 1d3d 5109 0a3e 4e04 6e3b 1fe5 773d
00000380: 21f2 bb3d 8fcc 803a 69ac 703a b8d5 183d
00000390: 468a 213d e57b 743b fc19 143e 22c2 253e
000003a0: a6cf 9a3c 9d0d 863d aeb6 2d3d 8063 993c
000003b0: 1267 103d 58bd dc3d 11f2 d93c 71cd ac3b
000003c0: fc72 763d bc99 813b 9a73 5d3b 685b b73b
000003d0: c0a3 973d 7ebd fa3b ac7a 223d 32b5 af3d
000003e0: ea73 213d f031 7d3c d015 4b3d 4455 7e3c
000003f0: 3495 e23c 3001 fb3d b9a3 af3a 2e69 e139
0.00019143945 5.94785e-05 0.0015448481 0.0014007082 0.0007507338 2.2159638e-05 0.0010049646 0.0007648718
0.00016685535 6.495019e-05 0.0020360767 0.0025403954 0.0008846783 0.0016145615 0.00024156626 3.62673e-05
0.000102745966 0.0019654746 0.0016293994 0.00062782306 0.002354269 0.0022215927 0.00019763442 0.0009420653
0.00016184924 5.991785e-05 0.0013458924 0.0010094421 0.00091041723 0.0020632958 4.5755485e-05 4.3024713e-05
0.00026200275 0.00069621473 0.0034325626 1.3537268e-05 0.004827646 4.926597e-05 0.0022703412 0.0011623803
0.00022294106 0.00462461 5.7021345e-05 0.00012924733 0.00266546 4.8672522e-05 3.599055e-05 7.988409e-05
0.00091370766 0.0001343195 0.0011370392 0.0010208983 0.00057631655 0.00029949096 0.0005460671 2.18188e-05
0.0008727223 0.0063543175 8.783714e-05 0.00068578415 0.0041452395 1.894936e-05 0.0051111984 2.304783e-05
0.0023651724 0.0015028447 0.005707652 0.0037536672 0.0013750462 0.0036511049 0.00014390922 3.2422904e-05
0.00010521286 0.0050273626 0.0011480486 2.8424423e-05 0.00020709017 0.0008496502 0.0001656839 0.00043107077
0.0038847055 0.0060048923 3.13476e-05 0.0038508098 0.0015306621 0.003539989 0.0048684687 0.004298755
0.0029795503 0.0013703711 0.0001483465 2.3880508e-05 0.00051481416 0.0005228023 0.00022655683 4.2729043e-05
0.00015669838 8.328691e-05 0.00039992083 9.9078774e-05 0.00012279264 0.0014586825 6.3832755e-05 0.00029740887
0.00055496395 6.55098e-05 5.2301486e-05 0.00026221172 0.0002674416 8.5058935e-05 8.84936e-05 0.0004169093
0.00010569559 4.292083e-05 3.454596e-05 9.442708e-05 4.0921364e-05 0.0005913029 5.4350512e-05 8.676214e-05
0.0008226858 0.0009802138 0.007403688 0.0069734748 0.013739179 0.0008513885 0.015512129 0.0028538299
0.010042401 0.009270011 0.008412253 0.018887252 0.0033300817 0.0077324775 0.012163864 0.00020265092
0.0002850985 0.011053903 0.009028529 0.003194184 0.017834796 0.017602347 0.0037657307 0.007427027
0.008243032 0.00032183083 0.0072003505 0.01780825 0.0041489745 0.0029823887 0.007199874 0.0013790219
0.019965397 0.0031060162 0.02084804 0.005057089 0.029085953 0.0063891397 0.003761807 0.010209892
0.011319584 0.0005517692 0.005154928 0.003435765 0.0074779643 0.00045828754 0.0009820818 0.0062489924
0.006927977 0.0012173041 0.009233598 0.0017980671 0.00014073918 0.0063884836 0.005828547 0.007453486
0.027520537 0.0026739223 0.0061881663 0.029528456 0.003892782 0.0014861027 0.004868961 0.0014938052
0.008068407 0.0001396496 0.0076131085 0.009404641 0.0011130943 0.0012340893 0.010660407 0.008414888
0.0043691527 0.009914848 0.0011952524 7.121531e-05 0.0013270733 0.007628747 0.0062094484 0.0018988627
0.011982964 0.011595575 0.00086243567 0.006878422 0.0040776883 0.0004176823 0.007709007 0.0015664872
0.0101254275 0.013870599 0.01730828 0.0011696484 0.0028167742 0.034299772 0.05822876 0.006013976
0.10293045 0.0243762 0.03380878 0.07633241 0.03842452 0.13480116 0.0036318484 0.06052124
0.09177042 0.0009826588 0.00091809646 0.037313193 0.03943851 0.0037305292 0.14463037 0.16187337
0.018897843 0.06545565 0.042410545 0.018724203 0.035254546 0.10778302 0.026604684 0.005273514
0.06016825 0.003955094 0.0033790828 0.0055956133 0.0740428 0.0076519838 0.03966777 0.08579482
0.039417185 0.015453801 0.04958135 0.015523259 0.027659036 0.12256086 0.0013400234 0.0004299371

exp_avg f4 [30]
00000000: 0ec9 86b9 824f 13b9 8191 bf39 08ea e6b9
00000010: f537 4fbb 3f8e baba d545 1aba d0ef 76bb
00000020: d642 8aba a854 1f3b 5b76 983a fd0d c839
00000030: 274e 393b 5a37 943b 7bad a33a 2682 b13a
00000040: f2f3 c2ba 7249 17bb 0d43 94b9 77c8 023b
00000050: 7e98 51ba 9dfe 7ab9 a472 a4ba ece2 72ba
00000060: ac9e ad3b 79c9 94b8 a7d7 b038 f975 deba
00000070: f8eb a8ba 9154 f33a
-0.0002570827 -0.00014048631 0.00036538768 -0.00044043385 -0.0031619046 -0.0014233066 -0.00058850396 -0.003767956
-0.0010548483 0.0024311934 0.0011631952 0.00038157395 0.0028275342 0.0045232 0.0012487614 0.0013542816
-0.0014873727 -0.0023084548 -0.00028278716 0.0019955912 -0.00079954404 -0.00023936709 -0.0012546373 -0.00092653814
0.005298456 -7.094717e-05 8.432502e-05 -0.0016972414 -0.0012887707 0.0018564631

exp_avg_sq f4 [30]
00000000: 4358 103b f8d5 783a f046 193c 70cf d338
00000010: e632 953c f9c4 6e3c 09e4 573c 599e 323e
00000020: 8293 1b3e 2ddf e03e a766 563b 2d8d 263c
00000030: 1346 ed3c aaff 6a3e 9cc3 f83b b140 b43d
00000040: f110 173e 8447 363c 3533 053c f50a cf3c
00000050: 2693 163d e930 9a3b 9ce3 593c 1cd0 2f3b
00000060: dd84 a93e 32a3 5037 a5c5 2a3a ba79 9c3d
00000070: f927 df3c 8b20 593c
0.0022025264 0.0009492333 0.009355292 0.00010099902 0.018212747 0.014573329 0.013176926 0.17443217
0.15192989 0.4392027 0.0032714994 0.010165495 0.028964078 0.2294909 0.007591678 0.088014014
0.14752556 0.011125449 0.0081298845 0.02527378 0.036761425 0.0047055376 0.013298895 0.0026826924
0.3310918 1.2435763e-05 0.00065144367 0.07640405 0.02724074 0.013252388

exp_avg f4 [30, 30]
00000000: 8f76 8c39 235f 8b37 ef39 5bb9 b979 9eb8
00000010: 95a0 b9b8 28d6 ae39 e295 1a39 053f 9eb8
00000020: 3b04 2db9 793c 5b38 d4d6 a738 8254 8e39
00000030: d9c8 c438 053f bc37 f751 8cb8 45ff a6b8
00000040: 9f0c 28b9 39c5 8739 a783 82b9 c6a1 4439
00000050: cc4a df38 373e 8eb9 724e 0039 967b 9bb8
00000060: 1e17 19b9 3319 c639 4bae cbb8 ae99 42b9
00000070: c031 2e39 639e c1b9 a5b3 413a 914c aeba
00000080: 78af 63bb c1fc 1dbb c800 90ba b1dc 043b
00000090: f782 4c3b 13d2 0fba 4888 2fbb c25d 443a
000000a0: 5c9b a3b9 b05b 4d3b a0fb da39 1326 683a
000000b0: bb4c 2bbb 6434 a7ba 1224 95b8 52ae 043a
000000c0: 1b7f 9b3a f164 223b e10d a6b9 1826 dd38
000000d0: 932f c93a 4191 5ebb 3784 173b 8ad0 3a3a
000000e0: 3c30 3cbb 7e37 d8ba d3a8 133b bc37 84b9
000000f0: 0ff3 0bbb e174 30b9 a018 e63a 66b0 b13a
00000100: 78df 2b3a 2b34 c7ba f0f9 b5ba 8c0f 5338
00000110: e1db c5b8 0a31 9d37 69b5 34ba d0ea 95ba
00000120: 83c6 59b9 f952 71b9 ccc2 253a 84b9 853a
00000130: 76cf 6d39 d468 50b9 3008 28b9 acba 8bba
00000140: a31e e639 b863 8139 4c57 01ba 929f bb3a
00000150: 8ac8 d4b9 baee beba 9c9d c33a e42d 21ba
00000160: 01ff a4ba 351a 363a b81c 4eba 466c 8838
00000170: 3789 503a a509 aa39 6616 f135 a9a6 a6ba
00000180: ed8a a9b9 2bdb fb39 2e3d 773a 9578 c1b9
00000190: 163e edb9 5b8e 58ba ac29 84b9 883d 0bba
000001a0: 8c4d cf38 e271 0e3a 8d66 463a 4e6f 05ba
000001b0: 6dbc 9038 4ddc 1aba 3784 26ba e21c 223a
000001c0: bf3d 94b9 9023 c339 ef2b f539 5e3a 01ba
000001d0: 266c 343a 5a58 8039 68b1 04ba b02f 403a
000001e0: f2ac ae39 efb9 65b9 ea87 51bb 0422 84ba
000001f0: cc44 beb9 39dd 523b a3b7 2f3b 1a9b 8bb9
00000200: ad2e c9ba 82b6 1f3a ed78 703a 3b60 c23a
00000210: e2c2 c737 9875 4a3a ec5d 8eba 05b1 0dbb
00000220: 5ef0 11ba 8d4d ba3a 51a1 ad3a 9ce0 253b
00000230: 345c 60b9 9f04 19bb e83a 113b a171 2bbb
00000240: d4ac 85ba b43c 4d3b 0055 80bb 53c8 b6ba
00000250: ae9d 843b 753b ddba 27a4 01ba 4273 09b9
00000260: e44c a139 1513 d9b7 3ff7 2bb8 33e8 c7b9
00000270: c9ff e3b9 e6c9 9537 f0e4 9a39 494f c0b8
00000280: c1e0 1f39 e2c4 10ba f3b0 5039 293a 5db9
00000290: 892a 9b39 7fcc 9439 d6c4 ea37 d7e0 4cb9
000002a0: 1531 75b9 92b0 e5b9 18bf 1939 1282 2f3a
000002b0: bcce 18b9 10a8 9539 ebe6 b938 396b 30ba
000002c0: a209 133a 761a fd38 f14c e6b9 4c40 9b39
000002d0: 3f3c 3c3b 526e 10bb b7b7 63bb 050c 04bb
000002e0: e2a6 82ba 1897 00b8 670f 103b a32e de39
000002f0: e016 16bb 97b1 ce39 1bcc 653a 6910 433a
00000300: aa30 5739 1559 4d3a bb16 3ebb e77c d5ba
00000310: 126a 92ba da83 6239 d295 7a3a c7e6 923a
00000320: 9594 4f39 00d0 aa3a 7f17 1fb9 bdab 46bb
00000330: 5c81 f23a c52c 013a 58e4 49bb 5be4 e8ba
00000340: a204 2e3b 8350 ccba 990e b9ba 2f8e 043a
00000350: 8b66 d13a 0e35 9a3a 98f1 2b3a 3f19 4eb9
00000360: de7f 83ba 5b59 36ba dd91 fd3a dc41 c83a
00000370: 5c29 32ba d543 22ba 6b1a 52ba 3388 283a
00000380: 75dc 5e3a d3e5 3c39 da36 ecb8 ded0 f5ba
00000390: dd8c 6cb9 9c0b 86b9 9309 0dba 7dbe 163a
000003a0: 96ca 78b9 2574 8b39 a593 7939 2277 bfba
000003b0: 5cea 093b 8e05 8cb8 9bbf 2dba ba0d 823a
000003c0: f1b7 163b 2b64 e6ba b367 acba 213a a2ba
000003d0: 713c 76b9 8e00 df3a 8239 2939 f448 8bb9
000003e0: eede 8cba ac94 fab7 16ff 183a 0a25 a33a
000003f0: b95d 4b3a 1e44 baba bda5 a2b9 1c88 02ba
0.00026791214 1.6614393e-05 -0.0002090705 -7.5567e-05 -8.851398e-05 0.00033347425 0.0001474242 -7.5457654e-05
-0.00016500142 5.226999e-05 8.0031954e-05 0.00027147314 9.383419e-05 2.2440692e-05 -6.690987e-05 -7.9630445e-05
-0.0001602643 0.0002589615 -0.0002489362 0.00018752282 0.000106474006 -0.00027130704 0.00012236254 -7.4139956e-05
-0.00014599829 0.00037784278 -9.712259e-05 -0.00018558532 0.00016612466 -0.00036929836 0.0007389135 -0.0013297965
-0.0034742039 -0.0024106952 -0.0010986561 0.0020273144 0.003120599 -0.00054863206 -0.002678411 0.00074907776
-0.00031205534 0.0031335168 0.00041767675 0.0008855771 -0.0026138264 -0.0012756702 -7.111592e-05 0.0005061376
0.0011863442 0.0024779404 -0.00031672328 0.00010545197 0.0015349261 -0.003396109 0.0023119578 0.00071264117
-0.0028715273 -0.001649603 0.0022531047 -0.00025218527 -0.002135459 -0.00016828209 0.0017554946 0.0013556599
0.0006556432 -0.0015198042 -0.0013883691 5.03208e-05 -9.434648e-05 1.8738694e-05 -0.00068934873 -0.0011437777
-0.00020768684 -0.00023014461 0.00063232775 0.0010202383 0.00022679367 -0.00019875477 -0.00016024779 -0.0010660491
0.00043891845 0.00024679094 -0.0004933968 0.0014314523 -0.00040585204 -0.0014566996 0.0014924291 -0.0006148501
-0.0012588204 0.0006946654 -0.0007862556 6.505153e-05 0.0007955017 0.00032432112 1.7962418e-06 -0.0012714464
-0.000323377 0.00048037744 0.0009431419 -0.0003690167 -0.0004525042 -0.0008260959 -0.0002520805 -0.0005311598
9.8849734e-05 0.000543384 0.0007568382 -0.0005090133 6.901552e-05 -0.0005907461 -0.0006352099 0.00061841134
-0.00028274764 0.00037219794 0.00046762775 -0.0004929657 0.00068825705 0.0002447989 -0.0005061836 0.0007331325
0.0003331672 -0.00021908408 -0.003197188 -0.0010080938 -0.00036290882 0.0032175316 0.0026812337 -0.00026627706
-0.0015348993 0.00060925644 0.0009173293 0.0014829704 2.3813398e-05 0.00077232113 -0.0010861731 -0.0021620404
-0.00055671285 0.0014213786 0.0013246929 0.002531088 -0.00021396653 -0.0023348702 0.0022160355 -0.0026160257
-0.0010198602 0.00313167 -0.003916383 -0.0013945199 0.004047117 -0.0016878681 -0.000494542 -0.00013108275
0.000307656 -2.5877302e-05 -4.0999843e-05 -0.0003812924 -0.0004348739 1.78562e-05 0.0002954374 -9.1700414e-05
0.00015247149 -0.0005522502 0.00019902345 -0.00021097869 0.00029595595 0.0002838112 2.7986633e-05 -0.00019538715
-0.00023383305 -0.0004380984 0.00014662405 0.0006695102 -0.00014572864 0.0002854471 8.864499e-05 -0.00067298446
0.00056090404 0.00012068909 -0.00043926344 0.0002961181 0.0028722433 -0.0022038412 -0.0034746954 -0.0020148766
-0.0009967948 -3.0658295e-05 0.0021981837 0.00042377887 -0.0022901818 0.00039423697 0.0008766071 0.0007441105
0.00020522127 0.00078334037 -0.0029005248 -0.0016287834 -0.0011170527 0.00021602158 0.0009559068 0.0011207693
0.0001979641 0.001303196 -0.00015172175 -0.0030314766 0.0018501687 0.00049276307 -0.003080627 -0.001776825
0.0026553054 -0.0015587959 -0.001411873 0.00050565874 0.0015975995 0.0011765079 0.00065591326 -0.00019655096
-0.0010032614 -0.0006956064 0.0019345839 0.0015278417 -0.0006796324 -0.00061899173 -0.0008014801 0.00064289867
0.00085014786 0.00018014693 -0.00011263574 -0.0018754264 -0.0002255919 -0.0002556712 -0.000538015 0.0005750431
-0.00023726592 0.0002659868 0.00023801492 -0.0014607648 0.002104423 -6.676755e-05 -0.0006627978 0.0009922304
0.0022997821 -0.001757746 -0.0013153463 -0.0012376943 -0.00023482904 0.0017013715 0.0001613852 -0.000265665
-0.001074759 -2.9871553e-05 0.00058363506 0.0012446952 0.0007757801 -0.0014210974 -0.00031022532 -0.00049793883
